outputs_torchrl/Walker2d-v5/2025-10-27/20-17-00/policy_final.pt (torch, 297425 bytes, 6 tensors)

module.1.module.0.0.weight f4 [256, 17]
000000 97 60 48 be 52 d3 12 3d f0 ef 35 bd 78 98 69 be
       -0.19568096 0.035846062 -0.044418275 -0.22812068
000010 21 f9 41 be 87 a0 c2 bd 5e 3e 14 3a 8d 64 14 3e
       -0.18942691 -0.095032744 0.00056550454 0.14491482
000020 22 ae aa bd ec 93 4d 3d f2 bd f8 bd 16 bc 10 3e
       -0.083339944 0.050189897 -0.12145604 0.14134249
000030 4e 85 1e 3d 54 f3 71 be 9c 20 d8 bc 50 bf b9 3c
       0.038701348 -0.23627979 -0.026382737 0.022674233
000040 73 2e 2d 3d ba 41 06 be 04 90 0b be d9 ee 49 bd
       0.042280626 -0.1311101 -0.13629156 -0.04930005
000050 b5 e5 8d bd b4 c4 50 be c5 7d cd 3d 69 42 78 be
       -0.06928579 -0.20387536 0.10033754 -0.24244083
000060 c4 8a 4e 3e fe ea 10 3e 46 74 da 3d 68 28 42 3e
       0.20170122 0.14152142 0.10666709 0.18960726
000070 c1 8a f5 bd 21 fc 08 3e e6 4a 99 3d b4 38 fc 3d
       -0.11989356 0.1337743 0.07484989 0.12315503
000080 c0 10 10 bd 17 08 33 3e 76 98 f7 bd 49 c4 fd bd
       -0.035172224 0.17483555 -0.120896265 -0.12390954
000090 00 54 f5 3d 4c 30 5a be 15 b0 47 be d8 76 04 3e
       0.11978912 -0.21307486 -0.19500764 0.1293596
0000a0 da 39 b4 bc 6b 17 aa bd 5b 37 4d 3e ac 6f 02 3e
       -0.022000242 -0.08305248 0.20040648 0.12737912
0000b0 c0 fa 20 bd b8 10 21 3e 56 78 56 3d 5b e7 6b be
       -0.039301634 0.15729034 0.052360855 -0.23037474
0000c0 ff 79 7e 3b ed 74 10 be f3 9f 12 3e d7 64 46 3d
       0.003883004 -0.14107104 0.14318828 0.048436012
0000d0 ee 2d 69 3d e9 ee 10 be 61 8b 97 bc a2 63 e3 bd
       0.056928568 -0.14153637 -0.018499078 -0.11102988
0000e0 b4 bb 0d 3e bc 43 ad bd bf 87 26 3e bb eb 0d 3e
       0.13841134 -0.08460185 0.1626272 0.13859455
0000f0 01 86 4f 3d 71 61 2d be 95 21 5b be 71 ea 4e be
       0.050664905 -0.16931702 -0.2139953 -0.2020662
000100 9b cd d7 3c a6 51 74 3e 86 b8 ed bd 94 f9 66 bd
       0.026343158 0.23859271 -0.11607461 -0.05639036
000110 7b fb 4e be d3 53 1a 3e 41 23 4c be de 4c 54 bd
       -0.2021312 0.15071039 -0.19935323 -0.05183112
000120 95 89 f6 3d d7 ed cc b9 71 eb 72 3e 83 08 3e be
       0.120379604 -0.00039087117 0.23722626 -0.18557934
000130 ce 3e 74 3c 34 a7 4d be f7 9d 5e 3e a6 55 90 3c
       0.014907552 -0.20083314 0.21739946 0.017618965
000140 a1 18 05 3e ca ae de 3d 9a fc 33 be f0 b7 98 bd
       0.12997676 0.10873182 -0.17576829 -0.07456958
000150 ba 66 c5 3b da ac 2d be 57 a8 83 3d 49 29 d0 bd
       0.006024209 -0.16960469 0.06428593 -0.101641245
000160 10 04 ca 3b 95 99 16 3e 16 b1 00 3e 78 0d bf bd
       0.006165035 0.14707024 0.12567553 -0.09328741
000170 be 63 de 3c cf 52 77 be 38 38 93 bd bf ef 62 be
       0.02714717 -0.24152683 -0.07188457 -0.22161768
000180 c6 e4 34 be 1e b5 38 bd 6f 04 b3 3d 90 04 58 3d
       -0.17665395 -0.0450946 0.0874108 0.052738726
000190 d4 c0 55 be 21 c1 0e be e4 01 1c 3e a1 66 48 3e
       -0.2087434 -0.1394086 0.15235096 0.195704
0001a0 27 46 16 bd ea e4 d3 bd 4b 64 d3 3d ff 39 97 3d
       -0.036687996 -0.10346396 0.10321864 0.07384109
0001b0 76 0f 38 be 73 ad d6 bd 29 52 6c 3e 98 8c 3e 3e
       -0.17974648 -0.104823016 0.23078217 0.1860832
0001c0 78 58 00 3d f2 7d 0a be dd 8c 64 3d 2c 49 2c be
       0.03133437 -0.13524607 0.0557984 -0.16824788
0001d0 88 75 89 bd 04 f1 e1 3d c2 0d 28 bd 19 e9 56 be
       -0.067118704 0.11032298 -0.041028745 -0.20987357
0001e0 80 94 4e be c0 a4 e7 3d 7b 5b 6a 3d 97 a2 b9 bc
       -0.20173836 0.113107204 0.05721615 -0.022660537
0001f0 5b 09 88 3d 4f 2b 27 be 7e e2 e6 bb fc 32 3f 3e
       0.066424094 -0.16325115 -0.007046043 0.18671793
000200 d5 ed 1f 3d 62 ad 03 be fc 41 c0 3d 67 3b 8c 3d
       0.039045174 -0.12859109 0.093875855 0.068472676
000210 93 2b 68 3e c2 33 00 be ee 6d 3b bd 8e 18 49 3e
       0.22672872 -0.12519744 -0.045759134 0.19638273
000220 6e 2a 70 bd 40 f5 71 be 5e f4 53 3e ad db b8 3d
       -0.058634214 -0.23628712 0.20698687 0.09026275
000230 99 e7 e3 3c 30 f0 9b bd 34 ae 75 be de 8b 12 be
       0.027820395 -0.076141715 -0.23992234 -0.14311168
000240 18 dc dc b9 be 1c 39 bd 77 a5 a9 3c ec 30 4b bd
       -0.00042125653 -0.045193426 0.020708783 -0.049607202
000250 e3 be 9f 3d 87 0c cd bd be 2f 0e bc 50 7e c7 bd
       0.078000806 -0.10012155 -0.008678375 -0.09740889
000260 d2 f6 20 be d4 51 5d be 75 ff 4c 3e a7 40 00 be
       -0.15719154 -0.21613246 0.20019324 -0.12524663
000270 dd 2e da bd 41 08 0b be fd 0a 72 be ea 5f 8e bd
       -0.1065347 -0.13577367 -0.23637004 -0.06951888
000280 51 e2 70 be 92 f5 2d be 3c 79 da 3d da cc 4b be
       -0.23523833 -0.16988209 0.10667655 -0.19902363
000290 eb ce af bc 08 33 44 3d 4b b9 6a 3e 1b 36 34 be
       -0.02146097 0.04790023 0.22922246 -0.17598765
0002a0 f2 1b 45 3e fb 36 62 bc cb d9 67 3e 2e 7c b8 bc
       0.19248942 -0.013807054 0.22641675 -0.022520151
0002b0 9f 81 b9 bd b9 a1 44 3e 0a 75 26 3d 33 dc 2d be
       -0.090579264 0.19202317 0.04063896 -0.1697853
0002c0 5f e7 08 3e 81 b5 2d 3e be 4f 4a 3e f5 87 2b 3e
       0.13369511 0.1696377 0.19756982 0.16751082
0002d0 83 a1 78 3c 82 9f 09 be 6b ed 68 3e 35 5d dd 3d
       0.015175226 -0.13439754 0.22746818 0.108087935
0002e0 7c bc 17 be 27 3d b3 bd d4 66 f7 bd 69 df d1 3c
       -0.14817995 -0.08751898 -0.1208016 0.025619226
0002f0 b8 2e 62 3e 29 ee 5f be ae 99 9d bd 76 2d 4b be
       0.22088134 -0.21868195 -0.07695328 -0.1984156
000300 eb 47 dd bd 57 47 26 3e 9b d8 fa bd 00 ed 9d 3d
       -0.10804733 0.16238151 -0.122483455 0.0771122
000310 57 87 8d 3d fb 89 d6 3c 5c 99 78 bd 3d 9f 47 3e
       0.0691058 0.026188841 -0.06069313 0.19494338
000320 2e 88 cb bd 3b 37 28 3e 43 e4 4a 3e 93 3c 6a be
       -0.099380836 0.16427319 0.19813637 -0.2287467
000330 6d 1e 24 3e 16 b4 e0 bd a0 94 be bd 20 fd 45 be
       0.16027232 -0.10971849 -0.09305692 -0.19334841
000340 8f 4a 2f be 2f c0 92 bc 53 51 ac bd c2 78 54 3d
       -0.17118286 -0.017913906 -0.08413949 0.051872976
000350 8c a5 bb 3d 63 5c 04 be 02 3f 3c 3e a1 bf 39 be
       0.09162435 -0.12925868 0.1838341 -0.18139507
000360 b7 a0 f9 3d c8 a2 3d be 88 b2 5c be 41 c2 6c be
       0.12188857 -0.18519127 -0.2155248 -0.23120977
000370 0c ac e3 3d 0d 65 d7 bd 7b 87 35 bc 1d 26 fa 3d
       0.111168 -0.10517321 -0.011079664 0.12214301
000380 5f a6 75 3e 06 9a f0 3d b4 5f d0 bd 51 c2 1d bc
       0.23989247 0.11748128 -0.10174504 -0.009628848
000390 76 bf 45 3e a0 7e 5a 3e 61 63 c3 bd 6f 10 1c be
       0.19311318 0.21337366 -0.095404394 -0.15240644
0003a0 23 ab 1d 3e 81 c1 06 be 32 ff 8a bd ed f7 de bd
       0.15397315 -0.13159753 -0.06786956 -0.10887132
0003b0 8f ef ca bd 4c c8 61 3e 2d 3f be bd 20 a0 8a bd
       -0.099089734 0.22049063 -0.092893936 -0.06768823
0003c0 48 15 49 3e 6c dc b9 3d 39 fb 44 bc 81 59 4f be
       0.19637024 0.09075245 -0.012022787 -0.20248987
0003d0 17 d1 5d be be d7 5e 3d 1d 70 2f be 07 69 d6 bd
       -0.21661793 0.054404967 -0.17132612 -0.10469251
0003e0 27 52 82 bc cb d9 73 be 73 c0 01 3e 92 3d 16 be
       -0.015908314 -0.2381355 0.1267107 -0.14671925
0003f0 91 2e 1a be 10 ba 46 be 25 c2 a9 3c a1 ee da 3c
       -0.15056826 -0.19406915 0.020722458 0.026725115

module.1.module.0.0.bias f4 [256]
000000 8a 6a ac 3d 64 eb 95 3d f3 4f 2c 3c 15 9d dd bd
       0.08418758 0.07320288 0.010517108 -0.10820977
000010 e1 95 3d 3d 1f 15 46 3e 7a 37 5f be 5c 6e 41 3e
       0.046285514 0.19343995 -0.21798506 0.18889755
000020 91 77 3c bc 34 aa 22 be 6a ab 52 3e bc 4b a0 bd
       -0.011503116 -0.1588524 0.20573202 -0.07826945
000030 e5 a8 a9 bd 4f f2 0c 3e c0 42 14 be 31 ec 40 be
       -0.08284167 0.13764308 -0.14478588 -0.188401
000040 8f 1b 00 be ff 57 9a bb d1 df ff 3d d6 33 8b 3d
       -0.12510513 -0.004710197 0.124938615 0.06796996
000050 c2 43 d6 bc b4 06 39 3e 0f ae 6e bc 0e 30 41 3e
       -0.026155356 0.18068963 -0.014567866 0.18865988
000060 ad 87 60 bc b4 7f d9 3c aa 24 43 3e 24 ac 22 3e
       -0.013704223 0.026550151 0.19056955 0.15885979
000070 37 af 2a be 03 fc 40 be d0 a8 3f be ef 42 d3 3c
       -0.16668402 -0.18846135 -0.1871674 0.025788752
000080 70 00 4f be 90 19 55 3e 9c f5 21 3e 60 c4 51 3e
       -0.2021501 0.20810533 0.15816349 0.20485067
000090 60 07 6b 3c f3 65 b1 bd 80 e3 2a be 9d fc 17 3e
       0.01434502 -0.086620234 -0.16688347 0.14842458
0000a0 fc 3d 92 bd c8 69 36 3d f8 ef c2 3d 03 05 ba 3d
       -0.07140729 0.044534475 0.09518427 0.09082987
0000b0 71 bb 51 3e f6 f2 58 bd 67 78 25 3e a6 5d 2c 3e
       0.2048166 -0.05296608 0.16159211 0.16832599
0000c0 14 3d 52 be af f8 17 be d6 1c 9c bd 6a e4 68 be
       -0.20531112 -0.14840959 -0.076226875 -0.22743383
0000d0 50 a1 af 3d 8a 11 6d be 7c 7a 52 be f0 6d 43 be
       0.0857569 -0.23151222 -0.20554537 -0.19084907
0000e0 07 b4 fc bd 6f 29 c1 3d d4 36 44 3e 52 d3 65 be
       -0.12339025 0.09431731 0.1916154 -0.22443894
0000f0 1c 49 68 3e 71 27 df 3d 9f 36 d0 3c cd d1 53 3e
       0.22684139 0.10896195 0.02541667 0.20685501
000100 6a 50 13 3e 84 08 29 bd 0d e3 01 be 1e 34 03 be
       0.14386144 -0.041267887 -0.12684269 -0.1281285
000110 35 45 17 3e d2 5f 4b be 77 ca d4 bd 3a 3a 76 3e
       0.14772494 -0.19860771 -0.103901796 0.24045649
000120 9e d0 95 bd 5d 39 a7 3d c3 b5 53 3c 56 d4 41 3e
       -0.07315181 0.08165238 0.012921753 0.18928656
000130 46 73 77 be f8 44 1f 3e 99 3c 10 be d0 ff 31 be
       -0.24165067 0.15553653 -0.14085616 -0.17382741
000140 dd 5e 45 3e 89 b5 0c be 82 24 c2 ba d6 92 46 3d
       0.19274469 -0.13741125 -0.0014811906 0.048479877
000150 ba 2b 4b 3d c5 32 d9 3d 10 66 f4 bd 84 11 e3 3d
       0.049602248 0.10605387 -0.119335294 0.11087325
000160 97 11 51 3e 0d 48 88 bd 4a 69 8f 3d a6 71 4d bc
       0.20416866 -0.066543676 0.07002504 -0.012539303
000170 b1 cb 75 be 98 84 3a be a6 fe 3d 3e 23 b9 ce 3d
       -0.24003483 -0.18214643 0.18554172 0.10093906
000180 5d d1 6a 3e fe 91 25 3e fe 47 54 3b 01 be 24 3e
       0.22931428 0.16168973 0.0032391544 0.16088106
000190 e4 03 23 3d 84 87 ed 3c 4d 90 e7 3d f6 b9 e5 3d
       0.039798632 0.028995283 0.1130682 0.1121711
0001a0 e8 13 dc bd ee 95 26 3e fd a5 b7 bd 10 8c b9 3c
       -0.10745984 0.16268131 -0.089672066 0.022649795
0001b0 e6 20 70 3e 43 04 32 be 45 93 0e be 79 92 ab 3d
       0.2345005 -0.17384438 -0.13923366 0.08377547
0001c0 91 c4 02 be 5e c2 00 be a0 3f 21 3d 52 f9 d3 3d
       -0.12770297 -0.12574145 0.03936732 0.103502885
0001d0 0a 5b 71 3e 94 76 9d ba bf 54 3d bd 8f 09 09 3e
       0.23569885 -0.0012013488 -0.0462234 0.13382553
0001e0 dc fd 27 be 9f 27 5f 3e 41 81 bc 3d 87 f2 20 be
       -0.16405433 0.21792458 0.09204341 -0.15717517
0001f0 b1 fb 09 bc 76 6c 54 be ff 21 08 be e5 0e 76 bd
       -0.008421824 -0.207445 -0.13294218 -0.0600728
000200 fb 64 a4 3d 36 c2 5c bd d6 1c 26 3d d3 fb 8f bc
       0.08027073 -0.05389615 0.040554844 -0.017576134
000210 78 a7 bd b8 ce f4 ce bc a7 23 78 3b ec e7 b1 3d
       -9.043416e-05 -0.025263216 0.0037863047 0.08686814
000220 ea 87 c6 bd da 4d 12 be a3 d4 07 be db fc 2b bd
       -0.09693892 -0.1428751 -0.13264708 -0.04198919
000230 03 1d b6 3d e9 df 42 bc 14 49 23 3d 56 32 64 3e
       0.08892252 -0.011894205 0.039864615 0.22284827
000240 5d ae 6b be 58 62 58 be 44 fb 22 3e bb 38 33 bd
       -0.23015733 -0.21131265 0.15916163 -0.043755274
000250 55 84 52 3e 59 e1 02 3e ff b2 e8 3c b4 b4 86 bd
       0.20558293 0.12781276 0.028405664 -0.06577435
000260 f3 e4 53 bd 6b 48 1a 3e 6e 27 14 3e f7 a9 a5 bd
       -0.051732015 0.15066688 0.14468166 -0.08089059
000270 79 91 58 3e 3a a2 d0 bd 0f 08 2a 3e 8d f3 46 bc
       0.21149243 -0.10187192 0.16604637 -0.012143028
000280 71 73 e2 bb 17 ed 20 3e bc 4e 82 3d 82 8b 50 3d
       -0.0069107343 0.15715443 0.06362674 0.050914295
000290 db 09 1d be a3 5d f2 3d fc c3 ed bd 13 8e d1 bd
       -0.15335791 0.11834266 -0.11609647 -0.10232177
0002a0 c2 e9 d5 bd 91 cc 26 be ba 0a 43 be c3 89 71 be
       -0.104449764 -0.16288973 -0.1904706 -0.23587708
0002b0 47 d0 0b be 81 f0 5c 3e 46 12 0a bd f5 7a 9e 3d
       -0.1365367 0.2157612 -0.033708833 0.07738296
0002c0 6d 78 27 3e 9d 57 02 be 37 40 27 bd 98 6d 2c 3e
       0.16354533 -0.12728734 -0.040832724 0.16838682
0002d0 a5 0d 1f bb b0 70 5d be 54 66 3f 3e 6d 18 08 3e
       -0.0024269607 -0.21625018 0.18691379 0.13290568
0002e0 3d 1c f2 bd a9 54 21 3e 52 44 9f 3d f1 0a 5d 3d
       -0.11821792 0.15754952 0.07776703 0.053965513
0002f0 51 07 0f 3e 81 dc 93 bd 06 81 76 3e 4f f5 55 bd
       0.13967635 -0.07219792 0.24072656 -0.052235898
000300 e3 e6 4d 3e a4 e7 ba bd ea 7e 60 bd 99 7a 1c be
       0.20107608 -0.09126213 -0.054808535 -0.15281142
000310 a6 25 0c be 84 10 84 3d 46 a7 4e bc 33 93 5d 3d
       -0.13686237 0.064484626 -0.012613123 0.05409546
000320 db 8c 9e bd 0a 2d be bd 0f da 9e bd 5c fc 72 3e
       -0.0774171 -0.09285934 -0.07756435 0.2372908
000330 82 78 98 bd 21 cd c5 3d 02 9d 1a be 82 e0 08 be
       -0.0744486 0.09658266 -0.15098956 -0.13366893
000340 43 20 3d be 5b cc ed bd ee 14 c0 3d 21 90 d6 bd
       -0.18469338 -0.11611243 0.09378992 -0.10476709
000350 71 a8 32 be c6 1d 8f 3d ee d8 4b 3e 62 35 31 be
       -0.17447068 0.06988101 0.19906971 -0.1730552
000360 16 32 2c be f1 f4 23 3e e1 fb 43 3e a5 61 f1 3d
       -0.16815981 0.16011406 0.19139053 0.11786202
000370 ee e6 3b 3e b6 1b 3c 3e 94 5c ac 3d a4 e8 85 bd
       0.18349811 0.18369946 0.084160954 -0.06538513
000380 56 d2 61 be f2 cb 46 be 00 00 c9 bd ee 9b 16 3c
       -0.22052893 -0.19413736 -0.09814453 0.00919245
000390 42 4a 5b 3e 13 f1 ea 3d ed 80 28 3e 42 f7 2d bd
       0.21415046 0.114717625 0.16455431 -0.04247213
0003a0 ee c2 e7 bc 45 3a 94 3d ac 75 1b be 47 c2 5b 3e
       -0.028291192 0.072376765 -0.15181607 0.2146083
0003b0 d6 28 01 3d a6 39 42 be 81 66 6d bd 39 e1 75 3d
       0.031533085 -0.18967304 -0.057959083 0.060029242
0003c0 2a 30 69 3e ce 83 30 be 54 e0 27 3e 4a 80 2e bd
       0.2277228 -0.1723778 0.16394168 -0.042602815
0003d0 83 50 ab 3d 70 53 50 bd d7 56 1b 3e bd bf 57 be
       0.08364966 -0.050860822 0.15169846 -0.21069236
0003e0 dd a1 2b 3e 55 08 16 3d 29 2a 8c 3b 76 60 db bd
       0.16760965 0.03662904 0.004277487 -0.10711758
0003f0 2b a5 38 be 94 9f 19 be f8 ca b2 3c 1c 86 22 3e
       -0.18031757 -0.1500228 0.021825299 0.15871471

module.1.module.0.2.weight f4 [256, 256]
000000 56 f7 c7 3b 8c 6d 47 3d a1 18 c8 bc 5e 14 8e bc
       0.006102483 0.048688456 -0.024425806 -0.017343696
000010 56 46 70 bd 19 f3 2b bc d4 a6 25 3c 1b fd 4c 3d
       -0.058660828 -0.010494971 0.010110576 0.050046068
000020 37 d6 78 bd e5 c5 e9 bc f6 96 90 3c 2c 66 5c bb
       -0.060751166 -0.028536746 0.017650109 -0.0033630235
000030 ce df e1 3b 7e 0d 68 bd 09 3f 3b 3d 4d fd b5 bc
       0.0068931347 -0.056653492 0.045714412 -0.02221551
000040 3d 4e f1 3c a4 ed 58 bd 73 29 ea bb 38 f9 ff bb
       0.029456252 -0.052961007 -0.0071460544 -0.0078116916
000050 8f 73 90 bc bd 93 0c bd 27 c2 12 3d 81 6b c1 3c
       -0.017633228 -0.03432058 0.03582969 0.023610832
000060 39 73 b7 3c 5d b7 57 bd de 01 78 3d 79 24 14 bd
       0.02239381 -0.052665103 0.060548656 -0.036167596
000070 95 12 79 bd 36 b7 21 3b cc 41 d8 bb 98 98 25 3d
       -0.060808737 0.0024675853 -0.0065996405 0.040428728
000080 19 5c e8 bc 86 83 60 bd 66 d1 e0 ba 9e ef 3c 3d
       -0.028364228 -0.05481293 -0.0017152249 0.046126954
000090 15 d2 59 3d 3d c1 d4 bc dd 87 08 bd 4b 99 f0 bc
       0.053178865 -0.02597105 -0.033332694 -0.02936997
0000a0 6b 6b 13 3d 96 85 cc bc ea 54 9e bb 3b 3f f5 bc
       0.035991114 -0.024966042 -0.0048319 -0.029937377
0000b0 59 90 de 3c 1e 21 2b bd 7b 36 cc bc f4 94 1e bd
       0.02716844 -0.04177963 -0.024928322 -0.03871627
0000c0 7e 6a ff bc 30 a8 de 3b 9b 40 70 3d 87 b6 3f bd
       -0.03117871 0.006794952 0.058655363 -0.04680493
0000d0 2a 62 ef 3c ce 02 2f bd c9 29 2f 3d 4a cf 27 3d
       0.029221613 -0.042727284 0.04276446 0.04096917
0000e0 c1 d7 3e bd dc 0b 2b 3d c0 93 19 3d 12 df 24 3c
       -0.046592478 0.041759357 0.03749442 0.01006295
0000f0 d7 d2 53 bc c9 70 b3 3c 1a a7 19 3d f9 45 cc bc
       -0.012928686 0.021904366 0.037512876 -0.02493571
000100 ac 0c 00 3a ae 9f d8 3c c2 90 25 3d 35 d7 3d bd
       0.0004884701 0.026443329 0.040421255 -0.046347816
000110 36 14 81 3d 11 3b 9f 3c fd 21 3a 3c 07 e2 93 3c
       0.06302683 0.019437345 0.0113606425 0.018052114
000120 40 d5 03 3d 61 ea e1 3c d1 9f db 3c 74 93 05 3d
       0.032185793 0.02757758 0.026809605 0.032611325
000130 7d 69 c1 bc 65 71 d3 bb 9d 83 18 3d 96 98 a6 3c
       -0.023609871 -0.0064527267 0.03723489 0.02033643
000140 fc 0b 71 bc 5d 99 9a bc 30 63 b4 bc d2 42 67 3d
       -0.01471233 -0.018871957 -0.022019953 0.05646021
000150 bc 54 10 3c 95 7b 62 3d 0d 08 45 3d df fd 11 bd
       0.008809265 0.05529364 0.04810338 -0.0356425
000160 d4 af 2a bd 48 ab a8 3c 52 81 16 3d 86 82 51 3d
       -0.04167159 0.020589486 0.036744423 0.051149867
000170 a6 58 a3 3c 49 e2 16 3d 76 5f 06 3d 83 2e 98 3c
       0.019939732 0.036836896 0.032805882 0.018576866
000180 75 eb 3a bd 57 08 60 3d 3f ad 7a bd 2a b0 da 3c
       -0.045634706 0.054695453 -0.061200377 0.02669533
000190 9f ce ab bc d9 b6 53 3d be 60 68 3d 54 7a 75 bd
       -0.020972548 0.05168805 0.056732886 -0.059931114
0001a0 3b fd 0a 3d ce c6 ff bb 51 a5 95 bb 5f 91 8d 3c
       0.033932906 -0.007805682 -0.0045668264 0.017281232
0001b0 d5 39 d7 3c e6 ea 76 3d 2e e1 75 3d 88 98 55 3d
       0.026272694 0.06028261 0.0600292 0.05214742
0001c0 ca ae fe 3c 91 31 52 3d 22 d6 5f 3d 9f 60 99 3c
       0.031089205 0.0513168 0.054647572 0.01872283
0001d0 4e 1a 8d 3c a1 19 2b 3d f5 07 f0 bc d5 88 e9 bc
       0.017224457 0.04177249 -0.02930067 -0.02850763
0001e0 d9 42 6e 3d bb c7 b9 3b 40 aa 6f 3d b2 54 00 bd
       0.05816922 0.0056695617 0.058511972 -0.03133077
0001f0 0b 6a 64 bd 87 14 16 3d 89 f3 22 bd bf 84 41 3d
       -0.055765193 0.03664067 -0.039783034 0.047245737
000200 59 57 3f bd 24 44 71 3d c7 76 05 bd 3a 57 79 bd
       -0.04671416 0.058902875 -0.032583978 -0.0608742
000210 1a f8 5e bc f4 89 f9 bc 71 f5 53 bd 2b 74 2e 3d
       -0.013608957 -0.030461289 -0.051747743 0.042591255
000220 f2 84 2b bd 00 5c 1d bd 89 ab 6f bd a2 eb 4f bd
       -0.041874833 -0.038417816 -0.058513198 -0.050761826
000230 85 83 61 3d 12 32 10 3b 8e 21 36 3d fb aa 5e bd
       0.055057067 0.00220025 0.044465594 -0.05436228
000240 72 71 2a bd c9 ab 07 bd ef 25 87 bc b5 3d 95 bc
       -0.041612096 -0.03312281 -0.01649758 -0.0182179
000250 ed 40 6b bd b7 e2 d3 bc 44 56 94 3c b4 35 11 bd
       -0.057434965 -0.025864942 0.01810754 -0.035451606
000260 1a 85 1a bc 00 b5 a3 3a cc 3f 04 3d 7f 91 12 3d
       -0.009431148 0.0012489855 0.032287404 0.035783287
000270 5e b3 f0 bb c9 8e b2 3b c0 b6 e0 3c f0 e8 cd 3c
       -0.007345601 0.00544915 0.027430892 0.025135487
000280 1d f5 7a 3d 21 36 f2 bb 61 19 68 3d 5a 0d 62 3d
       0.061268914 -0.0073917066 0.05666483 0.055188514
000290 38 b7 24 3d 98 24 e8 bc 61 ad b0 3b cb 41 46 bc
       0.040213794 -0.028337762 0.005391762 -0.012100647
0002a0 10 f0 08 3d da 7d 30 3d a9 25 4b 3d ca 83 4a 3d
       0.033432066 0.04308877 0.049596462 0.04944209
0002b0 64 eb 57 bc be c3 e5 3c e9 45 09 3c 76 af 56 3d
       -0.01317868 0.028047439 0.008378484 0.052413426
0002c0 38 c7 24 3d 59 ba 47 bc f2 d0 11 3d aa 96 ab b9
       0.040229052 -0.012190425 0.035599656 -0.00032727915
0002d0 fe 56 c4 3c ed 24 1e bd 31 ac 35 bb 82 31 90 3c
       0.023967262 -0.038609434 -0.0027721042 0.017601732
0002e0 c3 b0 77 bd 1a 95 2a bd ba b3 19 bc a2 32 58 bd
       -0.060471307 -0.0416461 -0.009381229 -0.052782662
0002f0 a5 4e 62 ba 7c 93 22 3d 13 ba c1 bc 0c 4a 49 bd
       -0.0008632935 0.039691433 -0.023648297 -0.049142882
000300 96 21 0e 3d 09 92 09 3c 58 45 e4 bc 1a f2 45 bd
       0.0347 0.008396634 -0.027865097 -0.04832659
000310 48 f0 00 3b 1f f8 e0 ba f9 fd f1 3a df 2c 76 bd
       0.0019674469 -0.001716379 0.001846253 -0.060101386
000320 1d c7 32 3d 5e f5 1d 39 d8 08 07 bd 7d f2 75 bd
       0.04364692 0.00015064093 -0.03296742 -0.060045708
000330 b8 fe 16 3d 99 1c 43 3d 76 32 1c 3d 14 2e 3c bd
       0.036864012 0.047634695 0.03813406 -0.04594238
000340 78 b8 02 bc 76 56 2b 3d 90 c5 66 bd 16 b3 58 3d
       -0.007978551 0.041830502 -0.056340754 0.052905165
000350 cb d4 81 3d 30 6b 2d 3d c9 6d 18 3b 1d 9c f6 3c
       0.06339415 0.04233855 0.0023258796 0.030103737
000360 5d 1f 47 3d 1e 36 5f 3c 8c 4d ab 3c 41 fc 6e bc
       0.048613895 0.013623742 0.020911 -0.014586509
000370 07 e7 3f bd f2 99 6a 3d 8d 62 25 3b 17 46 43 3d
       -0.046851184 0.05727572 0.0025235743 0.047674265
000380 52 d8 d5 bb 5f a0 13 3c 9d 56 46 3d 27 e9 28 3d
       -0.0065260315 0.009010403 0.048422445 0.041237976
000390 be 29 7b bd d5 ae 7c bd d1 b0 74 bd da 59 3b bd
       -0.061319105 -0.06169017 -0.059738938 -0.045739986
0003a0 e5 be d0 bc bb 66 0c bd 42 ba 00 3c 85 1f 48 bd
       -0.02548165 -0.03427766 0.007856907 -0.048858184
0003b0 fa f9 9e 3c 5a 3d 72 3d 44 6d bc 3c 10 8a ce 3c
       0.019406307 0.05914054 0.02300132 0.025212318
0003c0 ea aa 7a bd de 7a 25 bd 98 54 d9 3c a0 49 39 bd
       -0.061198153 -0.04040038 0.026529595 -0.04523623
0003d0 7c c8 cd bc d1 44 1f bc a5 88 59 3d 54 92 d5 3c
       -0.025120012 -0.009720997 0.05310883 0.026070751
0003e0 87 42 77 3d 45 f5 96 bb e2 c5 5a bc 73 15 52 bc
       0.06036618 -0.004606875 -0.013352843 -0.012822497
0003f0 ea 0f e4 3c ec 6c 46 3d be e1 e0 3c 41 b5 72 bd
       0.02783962 0.04844372 0.027451392 -0.05925489

module.1.module.0.2.bias f4 [256]
000000 c1 c0 42 3b 71 e3 5b bd 27 e0 8b 3c c3 5a 68 bd
       0.002971694 -0.053683702 0.017074658 -0.056727182
000010 01 b2 88 bc 38 ad 31 3d e5 8f b9 bc 86 73 f8 bc
       -0.016686441 0.043378085 -0.022651622 -0.030328523
000020 8c c1 10 bd 48 54 05 bd 90 ce 74 bd 6a 28 1a 3d
       -0.03534083 -0.03255108 -0.059767306 0.037636198
000030 3b 99 29 3c 1b 2f 1d 3d 47 34 21 3d 6d dd f1 bc
       0.010351474 0.038375 0.039356496 -0.02952453
000040 9c 6d f6 bc 56 33 83 bc ae 7e 25 3d 61 7a 4b 3d
       -0.030081563 -0.01601569 0.040404014 0.049677256
000050 9d 26 57 3d 68 1e 6d 3d c2 21 80 3d f7 32 5d 3d
       0.05252706 0.057890326 0.06256439 0.054003682
000060 3f 71 73 bd bb 64 cf bb a6 39 3d 3d e1 82 0a 3d
       -0.05943417 -0.0063291467 0.046197556 0.033816222
000070 2d 16 09 bd 40 05 00 3d bf 97 3e 3d aa 52 18 bd
       -0.033468414 0.031255007 0.046531435 -0.03718821
000080 f7 ed 00 3d d7 a0 52 bd 57 61 89 3b e2 75 83 b9
       0.03147694 -0.05142292 0.004192512 -0.00025074097
000090 17 98 23 bd 95 4c 40 bc 56 da 1c bd 98 e5 ec bc
       -0.039939966 -0.011737009 -0.03829416 -0.028918073
0000a0 9b 10 c3 bc 1f a7 0d bd 7b ce da bc 17 62 1c bc
       -0.023811629 -0.034583207 -0.026709786 -0.009544871
0000b0 9a dc fe 3c 5b fd 60 3d cd 92 09 bd b1 fe 2d 3d
       0.03111105 0.05492912 -0.033587266 0.04247922
0000c0 46 84 5e bd 44 80 5b bd 72 13 02 bd 56 0b cb 3b
       -0.054325365 -0.05358912 -0.031756826 0.0061964197
0000d0 95 1b 8e ba 91 37 9f 3c e6 21 b9 3c ce c4 ab bc
       -0.001084196 0.019435676 0.022599172 -0.020967867
0000e0 9d f3 05 3d 72 f1 6a bd 5a 98 2c 3d 99 43 83 3b
       0.03270303 -0.057359166 0.04213748 0.004005861
0000f0 05 0f 44 3d 84 53 f8 bb 82 1a a5 3c 18 d7 0c b9
       0.047865886 -0.007578315 0.020154241 -0.00013431569
000100 30 48 7a b8 77 06 3b 3d f9 81 63 3d 08 bd f3 bc
       -5.9671875e-05 0.045660462 0.055543873 -0.029753223
000110 f1 a7 f0 3b cd 7a b4 bc ae 1c 22 3d 36 31 98 3b
       0.007344239 -0.022031212 0.039578132 0.0046445383
000120 be 88 cb 3a ba 30 75 bd 57 80 9c 3b a6 b0 71 3d
       0.0015528423 -0.059860922 0.0047760415 0.059006356
000130 1c fb c0 3c 33 3c 3d bd f2 fe e2 bc cb 13 1a 3d
       0.023557238 -0.04619999 -0.027709458 0.037616532
000140 1e 65 79 3d ff 96 38 3d 79 e6 14 bc ed e3 33 bb
       0.06088745 0.045065876 -0.009088152 -0.0027449087
000150 86 96 2d 3d 5c f1 37 3c 15 f5 16 3d 1c df 23 3d
       0.04237988 0.011226978 0.036854822 0.040007696
000160 0e 6b 01 bc 85 ce 74 bd 1c 5b 04 3d cb 8c 67 bb
       -0.007899059 -0.059767265 0.03231345 -0.0035331722
000170 6a d1 2d 3d 57 9d 4b 3d a1 ce a7 bc a8 6c 54 bd
       0.04243604 0.049710598 -0.02048427 -0.051861435
000180 c4 d3 9a bc bd ea 90 3c 00 83 4e 3d 28 a3 ff bc
       -0.018899806 0.017690057 0.0504179 -0.031205729
000190 a4 82 2b bd cf 49 d7 3c 04 7f 74 bc fa 6c fe 3c
       -0.041872635 0.026280312 -0.014922861 0.031057823
0001a0 82 fd 12 bd 33 e0 6c bd 9b 9d 00 bd 52 fd 26 3d
       -0.035886295 -0.057831 -0.031400304 0.04076893
0001b0 1b bb 07 bd e1 45 01 bd 05 3d 9b bc ae 7b d0 bc
       -0.033137422 -0.031560782 -0.018949995 -0.0254496
0001c0 16 bf 21 bd 9d 18 1c 3d 94 58 1f 3d 32 73 05 bc
       -0.039488874 0.03810941 0.038902834 -0.0081451405
0001d0 34 11 13 bc 47 05 4e bd b1 97 dd 3c 37 d8 2e 3c
       -0.0089762695 -0.050298 0.027049871 0.010671667
0001e0 40 25 99 3c 7f b5 7d bc 33 ee a6 3b 61 d1 8b bc
       0.01869452 -0.015485167 0.0050943135 -0.017067613
0001f0 35 4b 6d 3d ea 24 d1 3c 68 b0 2a bd b6 d0 b5 3c
       0.05793305 0.025530297 -0.04167214 0.022194248
000200 d4 14 82 bb e1 57 4d 3d 85 0c ac bc 04 30 46 bd
       -0.003969768 0.050132636 -0.021002064 -0.048385635
000210 0a 05 c3 bc e9 80 56 bc ea 49 43 bd ce fa 5d 3b
       -0.023806114 -0.013092258 -0.04767791 0.0033871415
000220 4a fb 8a ba 64 c8 bd bc a2 7a 1a bd 84 b4 4f bc
       -0.0010603454 -0.023166843 -0.037714608 -0.012677316
000230 94 55 76 3d a9 55 5e 3d 44 2a 00 bd e2 ee a8 3c
       0.060140207 0.05428091 -0.031290308 0.02062172
000240 d3 1a 53 3b 57 28 2e 3d 6e e5 33 bd b0 11 1b bd
       0.0032212033 0.04251894 -0.043919973 -0.037858665
000250 43 71 26 3d dc 23 e1 bc e4 78 08 bd 6e 60 49 bd
       0.04063536 -0.02748292 -0.033318415 -0.04916423
000260 9e 96 e7 3c 25 c1 1d bd ff b1 14 bc 27 d0 95 bb
       0.028270062 -0.038514275 -0.009075641 -0.004571933
000270 01 b9 af bc 2e 9a 5d bd 71 9f e1 bc 46 85 7b bd
       -0.021450521 -0.054102115 -0.027541848 -0.061406396
000280 05 a7 56 bd 71 9c 80 bd 15 65 7f 3c 84 ba 7a bd
       -0.052405376 -0.06279839 0.015588065 -0.06121303
000290 90 b0 53 3d 04 c5 3b bb da 8b 7a bd 4f 3e 70 bd
       0.051682055 -0.0028651366 -0.06116853 -0.058653172
0002a0 3d a4 b2 bc 7e 46 b5 3c 94 55 3a bb d4 c4 6c bd
       -0.02180683 0.02212834 -0.0028432356 -0.057804897
0002b0 e5 d6 42 bd 7a d4 dd bc b4 24 12 3b 4d 53 90 bc
       -0.04756822 -0.027078856 0.0022299709 -0.017617846
0002c0 1b fd d8 bc 31 c0 e8 bc f7 d9 5c bd f6 65 ed 3c
       -0.026487878 -0.028411957 -0.053918805 0.028979283
0002d0 f4 1c a5 3c 0d cd 99 3c d6 58 7d 3d a0 ff fc bc
       0.020155407 0.018774534 0.0618523 -0.03088361
0002e0 2c 1b 78 bd 0a 42 60 3d 5e 02 a8 bc 7a 8e 68 3d
       -0.060572788 0.05475048 -0.020508941 0.0567765
0002f0 6f 51 7c 3b ed 45 4d bc 04 5f de b8 fc 7b 7d 39
       0.0038500687 -0.012528879 -0.00010603483 0.00024174148
000300 d9 93 3c bd 0b 75 5c 3d 42 3f 44 bd 5b 9f 62 3d
       -0.046039436 0.05382256 -0.04791189 0.055327754
000310 6a 20 04 bd ad 79 bc b9 bc e2 c0 3c 1c 16 00 bd
       -0.032257475 -0.0003594881 0.023545615 -0.031271085
000320 0d ad 77 3d 69 bd 72 3d a5 ef 69 3d 4d 34 12 3d
       0.06046777 0.059262667 0.05711331 0.03569441
000330 39 69 5b 3d 83 ca 5a bd 90 ac 80 bc 52 b3 42 bc
       0.053567145 -0.053415786 -0.015707284 -0.011883574
000340 37 fb c3 bc c3 84 2d 3c 79 4b 9d 3c 98 68 5b bc
       -0.0239235 0.010590735 0.019201027 -0.013391636
000350 ef ac 0e bc fa c5 de 3b 30 c9 8a b8 03 b4 84 3c
       -0.008708223 0.006798503 -6.617827e-05 0.016199118
000360 47 65 24 bd 34 53 01 3d 70 29 4a 3d 1c 9f 19 3c
       -0.040135648 0.03157349 0.049355924 0.009376314
000370 2b 2a 29 bd 6f 67 7a bc 76 6c ff bc 16 85 cd 3c
       -0.04129998 -0.01528345 -0.031179648 0.025087874
000380 e3 21 3e 3d 19 93 3e bb f7 f2 34 bc 21 24 2f 3d
       0.046419036 -0.0029079376 -0.011044255 0.042759065
000390 3c 0e 0d bc d1 e4 47 bc ab 7e 2c 3d 5c f5 8d bc
       -0.008609351 -0.01220055 0.042112987 -0.01732891
0003a0 7b bb fa bc b4 3f 78 3d 72 d0 a0 ba 9e 2b 63 bb
       -0.030606976 0.060607627 -0.0012269153 -0.003466345
0003b0 b2 04 12 bd 3a c1 1c bd 02 5d 67 bc 7e 12 42 bd
       -0.03564901 -0.038270213 -0.014121296 -0.047380917
0003c0 b5 e3 47 3c 2e de e9 3c 2e a5 05 3c 21 5a f5 bc
       0.012200286 0.028548326 0.008157058 -0.029950203
0003d0 09 5d 32 3d 5a d2 a8 bc d3 9e 4a bd c9 02 d8 3c
       0.043545756 -0.020608116 -0.049467873 0.026368516
0003e0 45 5c 31 bd fe f7 46 3d 5a c8 61 3d 01 87 73 3d
       -0.043300886 0.048576348 0.05512271 0.05945492
0003f0 b4 c5 1a 3d be ec 50 3c 90 98 60 3b b5 8d 3d 3d
       0.0377862 0.012751756 0.0034270622 0.04627772

module.1.module.0.4.weight f4 [12, 256]
000000 40 85 b3 bc 11 13 44 3d 5e 41 e8 bc cc 6f 4a bd
       -0.021914124 0.047869746 -0.028351482 -0.049423024
000010 dd 53 c9 bc 44 a6 fc bb 83 09 29 bc b8 c6 3b bd
       -0.024576122 -0.00771025 -0.010317209 -0.04584381
000020 de 81 6d bd d6 92 07 3d 3b 5f 38 bd 82 ff 64 bc
       -0.05798518 0.033099018 -0.045012694 -0.013976933
000030 01 9a b5 3b 8e c5 12 3c a4 25 20 3d c0 74 04 3d
       0.0055420403 0.0089582335 0.039098397 0.032337904
000040 2b 4d 23 3d fb 80 c7 3c e9 b8 49 bd cf 0c f2 bc
       0.039868515 0.024353495 -0.04924861 -0.029547123
000050 da a1 b4 bc bb a3 ee bc 19 9c 26 bb 9e d3 64 bc
       -0.022049833 -0.029130807 -0.0025422631 -0.013966469
000060 2d 58 df 3b 6b 64 1e bd 81 7f 2d bd da 5a 9d 3c
       0.0068159313 -0.038669985 -0.042357925 0.01920836
000070 d6 a9 36 3d 8a d1 64 3d ff 9e b0 3c e4 6a 2c bc
       0.044595562 0.055863895 0.02156019 -0.010523532
000080 1e 51 9b bc 4a b0 21 3c f4 00 ac bc 96 d9 04 3c
       -0.018959578 0.009868691 -0.020996548 0.008108517
000090 ef 8a 05 bd 40 33 63 3b a1 b6 d5 3c b4 e2 e5 3c
       -0.0326032 0.0034667999 0.02608806 0.028062202
0000a0 a8 3d 46 3d 88 9b 9e b9 0c 85 bb bc f1 14 5c 3c
       0.048398644 -0.00030251988 -0.02289059 0.013432727
0000b0 04 f3 e4 bb 55 41 1f 3d 09 fd 58 bd c6 93 20 bc
       -0.0069869775 0.038880665 -0.052975688 -0.009800857
0000c0 db 1c cb ba 10 b4 20 bd 37 42 5e bd 26 5b d6 bc
       -0.001549627 -0.03923422 -0.054262366 -0.02616651
0000d0 2c 4d 0d bd 16 d6 b7 3c 1a 73 7c bd b6 64 3f bd
       -0.034497425 0.022440951 -0.061633207 -0.046726905
0000e0 53 a7 54 3c 3c 15 23 bd d6 84 9d bc f7 c1 40 bd
       0.012979346 -0.039815173 -0.01922838 -0.04705998
0000f0 11 ad 10 3d 84 e5 12 3b cc aa a7 3c 16 98 3c 3c
       0.0353213 0.0022414634 0.020467184 0.0115108695
000100 f7 0c 31 bd 2e ff 5e 3d 71 e9 87 bc 4d 59 32 3d
       -0.043225255 0.054442577 -0.016590806 0.043542195
000110 0b 97 78 bd 41 ac 7e bc e4 28 ae b9 ca 6a ac 3c
       -0.06069092 -0.015543998 -0.00033218332 0.021047015
000120 5c 50 bd 3c c0 34 4a bd 68 15 50 bd 2a c2 0c bd
       0.023109607 -0.049366713 -0.050801665 -0.034364857
000130 8b e8 25 bd db 63 39 bd b9 72 33 bd 50 ce 28 3d
       -0.040504973 -0.045261245 -0.04381058 0.04121238
000140 85 07 7e bc ba ae 6d bd 1b a4 b7 bc da 9d 41 bd
       -0.0155047225 -0.05802796 -0.022417119 -0.04726968
000150 d4 fc 96 bc 9b 55 7f 3c b6 c7 67 bd b7 8e bd bc
       -0.018431105 0.015584375 -0.056586944 -0.02313934
000160 a5 fb 0a bd e2 09 4a bd d3 45 76 bd 5c fb 67 3d
       -0.033931393 -0.04932583 -0.060125183 0.0566362
000170 0b 90 c5 bc 54 4b 1b 3c 62 61 03 3d c2 9f f4 bc
       -0.024116537 0.009478409 0.032075293 -0.029861335
000180 dd a7 ad 3b d4 54 a2 bc 0f d4 63 bb d6 49 84 3c
       0.005299552 -0.01981584 -0.0034763848 0.016148489
000190 a8 95 8c bc 8e 2d 17 3c cc a4 5d bd 6f 5b 13 3d
       -0.017161205 0.00922717 -0.05411224 0.03597587
0001a0 b3 02 d8 bc ce dd b6 bc 86 9e 22 bc fd 9b 70 bd
       -0.026368475 -0.022322562 -0.00992549 -0.058742512
0001b0 43 41 38 bd c2 58 8a 3c 7a be 97 3b c9 97 3c 3d
       -0.044984113 0.016888026 0.004630861 0.04604319
0001c0 d9 9e b1 bb 5f 98 59 bd 97 af 2f bd da cb 29 bd
       -0.0054205474 -0.053123828 -0.042892065 -0.041454174
0001d0 e6 74 05 bc e0 35 1c bc f7 b4 3a 3c 53 41 ea 3c
       -0.008145547 -0.009534329 0.011395684 0.028595602
0001e0 c3 8b 11 bd 9c 00 91 bb fa 46 15 3d ee 8b 25 3d
       -0.035533678 -0.0044251215 0.03644464 0.04041665
0001f0 4e 1b f3 bb 98 28 8e bc b1 b4 ac 3c e6 bb 2a 3d
       -0.0074190265 -0.017353341 0.021082254 0.0416831
000200 92 63 a2 3c 32 c1 74 bb 76 64 0b 3d 22 00 29 bd
       0.01982287 -0.0037346599 0.034031354 -0.041259892
000210 88 ee 03 bd d7 c7 47 3c e0 f4 ea 3b 43 40 97 bb
       -0.032209903 0.012193642 0.0071703047 -0.004615815
000220 18 4f 6c bd 35 2b 46 3d 1b cb 55 3d aa cb 9b bc
       -0.057692617 0.04838105 0.05219565 -0.019018013
000230 86 ba 73 3d 9a 73 0a 3d 12 3e fd 3c b9 b2 2d bd
       0.059504054 0.033801652 0.030913386 -0.04240677
000240 b2 59 b6 bc 80 83 04 3b 87 6f 59 3d 41 34 4e bc
       -0.022259567 0.0020219982 0.053084876 -0.0125857005
000250 29 92 d8 bc 5e 1f 2b bd fd ff cc b9 6c 7d 91 3c
       -0.026436882 -0.04177796 -0.00039100638 0.017760001
000260 dc 0c 7b 3d f1 0c e2 3a 64 25 fa 3c 7f bb 30 3c
       0.06129156 0.0017246288 0.030535407 0.01078689
000270 b3 be 3c bd 10 e7 e1 bc 99 25 15 bd 6c c3 11 3d
       -0.046080302 -0.027576 -0.03641281 0.03558676
000280 c2 c7 3b bd 0b 41 14 3d 49 e7 0f bd 46 33 12 bc
       -0.0458448 0.036194842 -0.03513268 -0.008923357
000290 3d 06 43 3d 3d 90 9a bc 67 f9 d5 bb 3f 85 3e 3d
       0.04761337 -0.018867606 -0.006529975 0.046513792
0002a0 f0 24 0d bc be 99 31 bc 79 a0 ba bc b2 e6 ca 3c
       -0.008614764 -0.010839878 -0.022781597 0.024768207
0002b0 47 35 47 bd a6 59 cf 3c 00 63 c0 3c 81 5f 42 bb
       -0.048634794 0.025311302 0.023484707 -0.0029658976
0002c0 c3 24 43 bc 9b 65 59 bc 0c d2 0d 3d 1d 6e 1b 3d
       -0.01191062 -0.013268854 0.034624144 0.03794681
0002d0 07 a8 4f bc b9 22 3a bd ad 50 d6 bb 3f ef 10 bd
       -0.012674338 -0.04544327 -0.006540379 -0.035384413
0002e0 01 94 52 bd ac df a2 bc 5c 8f 39 3d 51 d0 b2 3c
       -0.05141068 -0.019882046 0.045302734 0.021827849
0002f0 b9 71 f7 3c 08 08 da bc f2 c1 bd 3c 03 11 0c bd
       0.030205594 -0.026615158 0.02316377 -0.03419591
000300 92 bc da 3c a5 69 6c bd 0f df ae bb 6e bf 54 3d
       0.026701245 -0.057717938 -0.0053366493 0.051940374
000310 53 08 69 3a f6 59 09 bd 15 cd 51 3d 26 af 05 bd
       0.0008889485 -0.03353306 0.051220972 -0.032637738
000320 f1 9f ca bb 2f fb ec bc cb 20 ce bb af 42 bc 3c
       -0.0061836173 -0.028928367 -0.0062905303 0.022981016
000330 2a d0 ee bb a6 54 76 bd 04 46 05 3d d7 1e 1c bc
       -0.0072879987 -0.06013932 0.032537475 -0.009528837
000340 b5 1c 54 bd 0b cd 40 3d 1e 89 1d bc 04 9e 24 3d
       -0.05178519 0.047070544 -0.009615211 0.040189758
000350 36 a4 4a bd 9e 1e 2c 3d ba 72 bf bc 2e 71 99 bc
       -0.04947301 0.042021386 -0.023370136 -0.018730726
000360 9a 7c e1 bc 88 d6 3d 3d c1 e0 05 3d 88 b8 99 bb
       -0.027525235 0.04634717 0.032685045 -0.0046911873
000370 46 d4 81 bd 98 a2 e1 bc 4e 57 e2 3c 9b 46 48 3d
       -0.06339316 -0.027543351 0.02762952 0.04889546
000380 05 3c b5 bc 95 77 0e 3c 11 8a 7b bd cc d1 35 3d
       -0.022123346 0.008695503 -0.061410967 0.04438953
000390 c7 78 26 3c 1c 07 c7 3c 48 b7 10 bd 60 4a c2 3c
       0.0101606315 0.024295382 -0.03533104 0.023717105
0003a0 33 dc 78 3b 62 06 5b 3b c6 f8 d1 3c eb 75 0b 3d
       0.0037973046 0.0033420552 0.02563132 0.034048002
0003b0 11 7d 1b bd ba 87 3a bd 70 eb da 3a 5c c4 0f 3d
       -0.03796107 -0.045539595 0.0016702246 0.035099372
0003c0 c9 7b 1e 3d 94 c2 93 bc 62 7a ad bb 0d ac 47 3d
       0.03869227 -0.018037118 -0.00529413 0.048748065
0003d0 c4 7b 0c bb e9 7d 95 bc 7c bd 47 3c 2a 89 4a bd
       -0.0021436075 -0.018248515 0.012191173 -0.049447216
0003e0 4b 9c e6 bc 98 35 b0 3c f2 d2 55 bd 09 b7 93 3c
       -0.028150698 0.02150993 -0.052203126 0.018031614
0003f0 77 57 92 bb 61 4c 15 3d 7d 5c 94 bc 4a 25 f8 bc
       -0.004465993 0.036449794 -0.018110508 -0.030291218

module.1.module.0.4.bias f4 [12]
000000 8c 99 20 bd a4 ac 4f 3d 01 84 b3 3c a3 d7 14 bd
       -0.039208934 0.050701752 0.02191353 -0.03633846
000010 11 25 1d 3d 84 26 d2 3c 2e f3 96 3c d4 e9 17 bd
       0.038365427 0.025653131 0.018426504 -0.03708823
000020 2f 52 19 3c 9d 28 5b bb a2 b0 53 3d 1e 5b 43 bd
       0.009357973 -0.0033440955 0.051682122 -0.047694318
