outputs_torchrl/Walker2d-v5/2025-10-27/20-17-00/value_final.pt (torch, 286021 bytes, 5 tensors)

module.1.module.0.weight f4 [256, 17]
000000 1f 64 0e bd bd 71 6e 3e b3 ef ae 3d 1c 2e 51 3e
       -0.03476345 0.23285575 0.08541813 0.20427746
000010 1a 96 48 3c b5 c3 33 be 21 61 ec 3d b1 33 9d bd
       0.012242818 -0.17555125 0.11541963 -0.07675875
000020 42 ab 23 be 4b f0 31 be 67 39 08 be f5 f8 6f be
       -0.15983298 -0.1737682 -0.13303147 -0.23434813
000030 df 39 1b bd b0 24 59 be 0d 4c 1c 3d fc ae 26 be
       -0.037896987 -0.21205401 0.038158465 -0.16277689
000040 92 8f 4a be 56 57 19 3d e6 b3 72 3e ed 52 44 be
       -0.1978133 0.037436806 0.23701438 -0.19172259
000050 16 9c 10 be 43 d4 d4 bd fe f6 94 3d 6a b7 8f bd
       -0.14122042 -0.10392048 0.072736725 -0.07017405
000060 2f bf 4c be cc af 98 3d 24 92 15 be 15 09 72 be
       -0.19994806 0.074554056 -0.1460653 -0.23636277
000070 e9 7a 5f 3e f5 18 58 be fa 25 2c be 15 d6 34 3d
       0.2182423 -0.2110327 -0.16811362 0.044149477
000080 4e ff a4 bc 73 46 3c be 07 56 33 3e 61 ea 74 be
       -0.02014127 -0.18386249 0.17513286 -0.23917533
000090 6a a0 9c bd 93 55 0e bd 58 f4 63 3e a2 ce 6f 3e
       -0.07647784 -0.03474958 0.22261178 0.23418668
0000a0 95 7c 59 3e df e5 a7 bd 7e ee 58 3e f1 1a c9 3c
       0.2123893 -0.08198141 0.21184728 0.02454898
0000b0 33 67 bd bd 39 c2 3c 3e 4d 45 b3 bd 81 7e 76 3e
       -0.09248199 0.18433465 -0.087534525 0.24071695
0000c0 68 97 37 3e be 0c 0a be 7d 97 90 3c 50 d0 2e be
       0.1792885 -0.13481423 0.01765036 -0.17071652
0000d0 e6 93 67 be c0 5b af 3d e1 76 4e 3e 58 ef 25 bd
       -0.22615013 0.08562422 0.20162536 -0.04051146
0000e0 05 2b 81 3d 5a 46 25 3e 75 0c 25 bd a7 07 94 3c
       0.063070334 0.16140118 -0.040295083 0.018070055
0000f0 28 19 76 3e 1f d7 6d be 19 fc 3a be 48 b9 41 3e
       0.24033034 -0.23226593 -0.1826023 0.18918335
000100 d2 99 69 be ac 0c a0 bd ba d0 c2 bc a4 1c 43 be
       -0.22812584 -0.07814917 -0.02378117 -0.19053894
000110 17 10 e3 3d 8d fa 88 3d 3d 5d 09 3e 31 81 73 bc
       0.11087053 0.06688414 0.13414474 -0.014862345
000120 ae a9 42 be a4 59 4d 3e 3b 1e 69 3e 22 b3 1e bd
       -0.1901004 0.20053726 0.22765438 -0.038745053
000130 d7 a3 56 bd 9a b0 9b 3d f4 64 bc bc 38 74 2e 3e
       -0.052402344 0.076020434 -0.022997357 0.17036521
000140 a7 00 a0 3d 75 26 22 be 2e 0a b3 3d d2 c7 f2 bd
       0.078126244 -0.15834983 0.08742176 -0.11854519
000150 f6 60 0c bc c1 d3 60 bc 4e 5d 3a be 4e 80 04 bc
       -0.008568039 -0.013722361 -0.18199655 -0.008087231
000160 cd a5 e1 bd d4 96 04 be 99 55 18 be 81 e5 32 3e
       -0.11017952 -0.12948161 -0.14876403 0.17470361
000170 d5 a0 3b 3e 5b 72 a4 bd b5 6f 4f 3d 2e e2 05 3d
       0.18323071 -0.08029624 0.05064364 0.032686405
000180 ce 6e 37 be 91 96 84 3d 65 95 44 3e 01 ea 68 3e
       -0.17913362 0.06474031 0.19197614 0.22745515
000190 6c 51 e0 bd 31 c2 a3 3d 38 e4 b9 3d 7b 3e bc 3b
       -0.1095303 0.079960234 0.090767324 0.005744753
0001a0 1d 5c 6f be 17 80 0f 3e d8 37 2f 3e a1 e4 cd 3d
       -0.23374982 0.14013706 0.17111146 0.10053373
0001b0 82 61 39 3e 03 cd 54 3e 72 59 6f 3e 88 5b 86 3c
       0.18103603 0.20781331 0.23373964 0.016401067
0001c0 80 92 cf 3d 58 28 3e bd e7 0b 4f be 4e 5c 2f be
       0.101353645 -0.046425194 -0.20219384 -0.17125055
0001d0 0a 94 6b 3e cd e7 99 3d 29 46 d7 bd 05 72 68 3e
       0.23005691 0.075149156 -0.10511429 0.22699745
0001e0 d5 e7 e4 3d 24 51 62 3e 20 18 33 bd 75 8a 60 be
       0.11177031 0.22101265 -0.04372418 -0.21927817
0001f0 5a c6 67 3e 98 61 4e 3d 35 f4 f9 3d c0 7c f6 3d
       0.22634259 0.05038604 0.12204782 0.12035513
000200 77 b3 13 3e 9d 33 2d be 4f f9 66 3d b1 cf 15 be
       0.14423929 -0.1691422 0.056390103 -0.14630009
000210 f2 8f 12 3e 4f 90 33 be f4 79 cd bd 39 a9 b1 bd
       0.14312723 -0.17535518 -0.10033026 -0.08674855
000220 66 70 4d be 8f 41 1a 3e 0c 30 ba bd 8e 72 26 3e
       -0.20062408 0.15064071 -0.090911955 0.16254637
000230 bb 55 3f bd 75 e8 43 3d 29 0d ca 3d 79 f5 01 3d
       -0.04671262 0.04782911 0.09865791 0.03172824
000240 47 d2 5b 3e 28 4c 8c 3d ff 6e 37 3e 27 ae 02 3c
       0.21466933 0.06850463 0.17913435 0.0079760915
000250 c8 4c 2a 3e 69 61 36 be c2 84 41 be 3b b0 04 be
       0.16630852 -0.17810597 -0.188983 -0.12957852
000260 69 eb 24 be e6 e3 dd bd 54 72 32 3e a7 79 68 3d
       -0.16105427 -0.10834484 0.17426425 0.05675664
000270 64 3b 84 3c 8d e2 ea 3d c9 93 3f be 9e 1c 05 3c
       0.0161416 0.114689924 -0.1870872 0.008124499
000280 45 0f 15 3e a3 bf 24 3e 09 75 46 3e c8 19 4f 3d
       0.14556606 0.16088729 0.19380583 0.050561696
000290 7b 18 b1 3d eb 4f 63 be 2c d3 3f 3e f7 7d 8b bc
       0.086472474 -0.22198455 0.187329 -0.017027838
0002a0 9d bb 88 3d 42 5a 70 3e f2 79 6a 3c de 41 2f be
       0.066764094 0.2347193 0.014311301 -0.1711497
0002b0 69 2d 65 be 98 96 47 be 80 87 3c 3e 67 49 89 3c
       -0.22380604 -0.1949104 0.18411064 0.016758634
0002c0 ba 37 55 be 8a 6b 9b bd 58 35 18 be 3c 65 3f 3c
       -0.20822039 -0.07588871 -0.14864099 0.011681851
0002d0 5a 1e f2 3d 59 61 77 3e 87 80 32 be a2 2b 2b be
       0.11822195 0.24158229 -0.17431842 -0.16715863
0002e0 07 96 08 bd a7 d3 15 3e 77 8f d0 bd 24 7b 3b be
       -0.033346202 0.1463152 -0.10183614 -0.18308693
0002f0 1b e6 63 bc b4 9f 37 3e 2d df 4a 3d e8 97 3f 3e
       -0.013909842 0.17932016 0.049529243 0.18710291
000300 35 32 11 bd e7 de 55 be 53 9a 44 be ef 7d 2a be
       -0.03544827 -0.20885812 -0.19199495 -0.16649602
000310 84 86 17 be e8 eb 4b be 64 14 1a be 97 5e 53 3e
       -0.14797407 -0.1991421 -0.15046841 0.20641552
000320 a6 df 21 be a1 d4 74 bd 63 fe 14 be 74 9b 92 bc
       -0.15807971 -0.05977309 -0.14550166 -0.017896391
000330 00 4e 68 3e 48 bf ff 3d 6e 0a 49 be 0c 72 39 3e
       0.22686005 0.12487656 -0.19632885 0.18109912
000340 3b f4 ea bc 60 63 30 be 07 65 e9 3d 04 5a 22 3d
       -0.028680911 -0.17225409 0.113962226 0.039636627
000350 79 0a 99 3d 3c 78 ff bc 84 27 5a be c7 50 2b 3e
       0.074727006 -0.031185262 -0.21304137 0.16730033
000360 a2 d8 23 3d 22 b5 b4 3d f1 da b7 bc 95 72 39 3e
       0.04000152 0.08823611 -0.022443267 0.18110116
000370 53 d3 70 be d8 7e 7f 3d 19 58 28 3d d7 96 84 bc
       -0.23518114 0.062376827 0.04109964 -0.016185207
000380 61 c2 b4 bb 77 64 10 3e a8 5c 2f 3e 46 29 b9 3d
       -0.005516336 0.14100824 0.1712519 0.090410754
000390 93 63 31 be 27 eb 08 bc d5 17 3a 3e 05 b2 12 3e
       -0.17323141 -0.008356846 0.18173154 0.14325722
0003a0 02 e9 0c 3d 2f 9d 4f 3e db 8d 6c 3c 66 6f 75 3e
       0.0344019 0.20274805 0.014438118 0.23968276
0003b0 e6 c2 28 3e e8 6b 37 bd 19 92 6f 3d 4d 94 74 be
       0.16480598 -0.04478064 0.05848894 -0.23884697
0003c0 29 1a 52 3e 27 7b 2a be b9 db 56 be 35 b7 15 be
       0.20517792 -0.16648541 -0.20982255 -0.14620669
0003d0 59 3b 44 bd c6 83 10 be dc 23 e7 bd b8 96 eb bd
       -0.04790816 -0.14112768 -0.112861365 -0.11503357
0003e0 6f a1 1f 3e 4e fa 31 be a5 58 1f 3e 00 3b d3 3d
       0.15588926 -0.1738064 0.15561159 0.10313988
0003f0 41 26 84 3d d9 ca 86 3d c8 78 07 be 69 d4 2f 3e
       0.06452609 0.06581659 -0.13229668 0.17170872

module.1.module.0.bias f4 [256]
000000 c5 61 14 3e 12 1a 17 bd 10 7e 66 3e 44 73 bd 3d
       0.14490421 -0.036890097 0.22509027 0.09250501
000010 12 6f 54 3e 14 16 79 3e 70 89 45 3e 13 14 3b 3e
       0.20745495 0.24324828 0.1929071 0.18269376
000020 47 f2 b7 bd 1e a4 ef bd 33 54 3f 3e 73 ff 9b bd
       -0.089817576 -0.11701225 0.18684463 -0.076170824
000030 6d 4c 04 be e0 8c 28 be 22 45 1a 3d c8 7e 76 be
       -0.12919779 -0.1645999 0.037663586 -0.240718
000040 70 40 f6 3d 70 ac be bd c8 7c e1 bd 89 a1 c3 bd
       0.12024009 -0.093102336 -0.11010128 -0.09552295
000050 5b b7 4f 3e fd 47 b7 bc 6a a5 65 3e 8f d1 75 3e
       0.20284788 -0.022373194 0.22426382 0.24005722
000060 55 39 28 be a6 23 87 bd ca 90 97 bd cf 79 4f 3e
       -0.1642812 -0.06598596 -0.07400663 0.2026131
000070 36 84 a5 3b c8 cb 76 3e b8 4c e9 bd 1b 4f e5 3d
       0.005051161 0.24101174 -0.11391586 0.11196729
000080 85 b2 8e bb 78 36 0f 3d 9c 26 f8 bd f6 ca 15 be
       -0.0043547773 0.034964055 -0.12116739 -0.14628205
000090 d0 0a 4c bd 25 aa 08 3e e1 45 22 3c 5c 31 52 be
       -0.049815 0.13346155 0.009904356 -0.20526642
0000a0 85 55 22 3e 61 f5 03 3e c5 61 45 3e 65 01 2a be
       0.15852936 0.12886573 0.19275577 -0.16602094
0000b0 2f f5 7d 3d 2c 93 4b 3e 1a ae 00 be 63 55 7d bb
       0.062001403 0.1988036 -0.12566414 -0.003865563
0000c0 6d a0 77 bc 3b b6 a5 bd 2a 58 5a be cb 98 ef bc
       -0.015113932 -0.08091398 -0.21322694 -0.029247662
0000d0 19 ee 9f 3d 38 92 69 bd 6b 88 80 3d 3a dd 66 be
       0.078090854 -0.05702421 0.0627602 -0.22545329
0000e0 5d 48 3b be 7c 95 98 bd 47 e9 cb bd e1 76 76 3e
       -0.18289323 -0.07450387 -0.099566035 0.24068786
0000f0 b1 40 1e 3e 07 62 1f 3e d9 76 3e be 94 ac 05 be
       0.15454365 0.15564738 -0.18600024 -0.13054115
000100 6e 39 88 bd 70 30 0e be ad 22 eb bd 78 80 a7 bd
       -0.06651579 -0.13885665 -0.11481223 -0.081788
000110 87 ed 0d 3d 8e 94 1e 3e c9 ac ed 3d 35 cb 6e be
       0.03465035 0.15486357 0.11605222 -0.23319705
000120 fb 9a 92 3d 37 cf 28 be 7a ee 57 be 65 4f 26 be
       0.071584664 -0.16485296 -0.21087065 -0.16241224
000130 5b 28 f5 3d ac 7e 66 3e af c7 e1 3d 82 9d d5 3b
       0.11970588 0.22509259 0.11024415 0.0065190205
000140 3a 5f 3f 3e 48 b3 b5 3d 46 4a 40 3e 2a fc 18 be
       0.1868867 0.08872086 0.18778333 -0.14939943
000150 3e a9 8e bb 36 4a 06 3e c1 1a 1f bd ad d8 f8 bd
       -0.0043536713 0.13114247 -0.038843874 -0.121507026
000160 dc 4c 5b 3e d9 4b 5b be a6 f9 52 be 95 1d b4 3d
       0.21416038 -0.21415652 -0.20603046 0.08794705
000170 b2 22 4d 3d 93 3d 52 be f7 72 38 bd 7f a6 08 bd
       0.050081916 -0.20531301 -0.045031514 -0.033361908
000180 75 c2 18 3d 93 e6 4b bc b6 87 43 3e 35 b0 69 3e
       0.037294824 -0.01244511 0.19094738 0.22821124
000190 b0 2a 5f 3e 7e d8 45 be 3d 92 9f 3d 54 da 45 3e
       0.21793628 -0.19320866 0.077915646 0.19321567
0001a0 f5 7a 00 bd f4 cb 3b bb 06 5f d7 bd 4c 58 39 be
       -0.03136726 -0.00286555 -0.10516171 -0.18100089
0001b0 72 e7 2f be 2c 96 d5 bd 19 83 fe 3a cc 3d 70 be
       -0.17178133 -0.10429034 0.0019417732 -0.23461074
0001c0 5b b4 46 be bc 49 57 be ac 1c 3e be 1e 36 63 3d
       -0.19404738 -0.21024221 -0.18565625 0.055471532
0001d0 78 85 10 3c 4f 67 73 3e 75 78 46 be 3f 3e b5 bd
       0.008820884 0.23769878 -0.19381888 -0.08849763
0001e0 d8 1c b2 3c fe 2d 1e be 15 90 60 3e 7d 09 63 3d
       0.02174227 -0.15447232 0.21929963 0.05542897
0001f0 ba 26 c3 bc ba 11 48 bd 98 05 1b 3e 4c 18 ff bd
       -0.023822177 -0.04884503 0.15138853 -0.12455806
000200 7c 06 d2 bd 5d e2 01 be dc 71 75 3d 41 55 50 3e
       -0.10255143 -0.12684007 0.059923038 0.20345022
000210 d9 a2 29 be 0a 45 17 3e d6 84 20 3e e6 29 28 3d
       -0.16566028 0.1477243 0.15675673 0.041055582
000220 d8 6b 68 be d2 45 68 bc 33 df 32 3e 9e 2f 67 be
       -0.22697389 -0.014176803 0.17467956 -0.22576758
000230 c9 b1 1a be 8e 5c 54 bd 44 44 4c 3e 72 be 8b 3d
       -0.15106882 -0.05184608 0.19947916 0.06823434
000240 5e 58 1f 3e 2d 99 e3 bd 77 1d 6e bc 08 6b 36 3e
       0.15561053 -0.111132 -0.014533392 0.17814267
000250 d9 93 1f be 44 6b eb bc 0b 3c 5c 3b 96 dd f0 bc
       -0.15583743 -0.028737672 0.0033605124 -0.029402535
000260 54 c7 00 3e 41 df ff 3d 94 3a 75 bd 77 f5 36 be
       0.12576038 0.12493754 -0.059870318 -0.17867075
000270 90 38 50 3c 62 65 02 3e d2 07 ed bd fd cd 4d 3e
       0.012708798 0.12733987 -0.11573757 0.2009811
000280 6a 9b c1 bd 49 24 76 3e 49 57 a7 3c f8 b8 64 be
       -0.09453471 0.24037279 0.020427363 -0.22336185
000290 f8 d5 78 be fe ff f2 3d 3b 6e a9 bd fe d8 2c 3e
       -0.24300373 0.11865233 -0.08272978 0.16879651
0002a0 c5 34 dd 3d 05 8d 02 bd 19 f3 36 bd 3e ee 40 be
       0.108010806 -0.031872768 -0.04466543 -0.18840882
0002b0 a0 0f 53 3e 3c 94 a1 3c 6f 87 82 3d 79 aa 12 be
       0.20611429 0.019724004 0.06373488 -0.14322843
0002c0 9d e0 50 be 27 35 d6 bd a6 75 37 3d 56 e5 3a bd
       -0.20398183 -0.10459357 0.044789933 -0.045628868
0002d0 6a 8a 17 bd 00 47 00 be 5d a7 1c bb c4 24 90 bd
       -0.036997236 -0.12527084 -0.0023903467 -0.070382625
0002e0 85 1b d4 bd ee 52 a4 3d e4 3e 56 be 7c 94 0b 3d
       -0.103568114 0.0802363 -0.20922428 0.034077153
0002f0 39 56 1f 3e 82 2e c4 3b 24 a8 23 3e 92 87 04 3e
       0.15560235 0.0059869895 0.1598211 0.12942341
000300 b1 a0 10 3e d3 db 28 be 59 3b 22 3c c5 a6 a3 bb
       0.14123799 -0.16490106 0.009901845 -0.0049942457
000310 1e 17 08 be 0f 01 8a 3d b3 fe 66 3c 75 01 0d be
       -0.13290069 0.06738483 0.014098811 -0.13770087
000320 c5 71 16 3e e0 af 5b 3d 7e 03 3b 3e 11 72 15 3e
       0.14691837 0.053634524 0.18263051 0.14594294
000330 fd 2c 7d 3d 7c 84 cf bd 67 99 80 3c b5 cc 1d be
       0.061810482 -0.10132691 0.015698148 -0.15410121
000340 a7 cf 24 be 79 18 2b 3e 6f 2a 69 be 13 57 b7 bd
       -0.16094838 0.16708554 -0.22770093 -0.08952155
000350 df 54 73 3e 60 34 f8 3c 18 74 73 3e 3f cb 64 3e
       0.23762845 0.030298412 0.23774755 0.22343157
000360 d6 86 52 3c 1e fb 9c bc 57 db 43 3e 11 4a 59 bd
       0.01284953 -0.01916271 0.1912664 -0.05304915
000370 d4 7c 6f 3e 9b 76 31 be f4 71 64 3e b9 92 51 3e
       0.23387462 -0.173304 0.22309095 0.20466127
000380 72 c9 23 be 43 d5 5c be 4b 40 fb bd fb 78 69 3b
       -0.15994814 -0.21565728 -0.12268122 0.0035625088
000390 e7 2b b2 3d 62 af 25 3e 78 71 38 bd f7 93 83 3d
       0.0869978 0.16180184 -0.045030087 0.064247064
0003a0 bd b1 76 bd b3 d0 71 3e a8 14 5e be 7c 99 65 be
       -0.0602281 0.23614769 -0.21687567 -0.22421831
0003b0 e7 23 27 3d 67 1e 90 bd 44 fc 2e be da 0a f5 bd
       0.040805724 -0.07037049 -0.17088419 -0.119649604
0003c0 ec 7f 0f 3e c7 1a 86 bd b2 c6 d7 3d 84 02 73 3e
       0.14013642 -0.06548076 0.10535945 0.23731428
0003d0 a1 38 c3 3b 30 2e 2c be 7c a3 4e 3e 29 50 1b bd
       0.0059576784 -0.16814494 0.20179552 -0.037918244
0003e0 ae 2e 05 be 8e 97 65 3d 8c ef 35 3d 89 a1 04 be
       -0.13006088 0.056052737 0.044417903 -0.12952246
0003f0 f5 12 69 3e e8 0c 0b 3e 31 9a 31 bd 2f 9f 43 bd
       0.22761138 0.13579142 -0.04335994 -0.04775923

module.1.module.2.weight f4 [256, 256]
000000 4c 29 34 bd 14 df 01 bd 10 a4 49 3d 43 f9 86 3c
       -0.043984696 -0.031706885 0.049228728 0.01647628
000010 b7 03 50 3d bb e5 e2 ba 02 36 77 bd ef 07 03 bc
       0.050784793 -0.0017310897 -0.06035424 -0.007997497
000020 de 41 08 bd 33 99 2e bd 2b b9 2e 3d 77 15 fd bb
       -0.03326594 -0.04262657 0.04265706 -0.007723506
000030 28 a9 38 3d 36 cd 33 3d 3a e4 08 bd 35 93 de bc
       0.045083195 0.043896876 -0.03342078 -0.027169803
000040 89 5b e1 3c cf ad 31 3c ab dc 57 bd 1a 20 07 3d
       0.027509468 0.010844662 -0.05270068 0.0329896
000050 90 84 54 bd fa 55 20 bd 36 71 4f 3d 99 40 00 bc
       -0.051884234 -0.039144494 0.050645076 -0.007827901
000060 9d 48 46 bd b2 d6 61 3c a3 e1 06 bd 36 a2 75 bd
       -0.048409093 0.0137840975 -0.032930028 -0.05996915
000070 de f2 60 bc a7 dc 4b bd 75 7f 66 bd 65 db e5 bc
       -0.013729779 -0.049770977 -0.056273896 -0.028058717
000080 78 c9 1c 3d 32 dd 61 3b c3 59 91 3b ad 43 35 3d
       0.038278073 0.0034464118 0.0044357493 0.044253994
000090 86 5d 33 bd 67 ef ee 3c 27 59 56 3c d3 97 36 3d
       -0.043790363 0.02916689 0.013082779 0.044578385
0000a0 75 4e e1 3c 48 b5 81 3d 5e c7 b7 3c 0b 18 33 3d
       0.027503232 0.06333405 0.022433933 0.0437241
0000b0 f0 d6 f7 bc 8b cd 4d 3d 9a cc bf bc 4d e8 b8 bc
       -0.030253857 0.05024485 -0.023412991 -0.022571707
0000c0 67 c5 5e 3d 8f 0d 70 3d 3a eb 22 3d 42 7c 17 bd
       0.054387476 0.05860668 0.03977511 -0.036983736
0000d0 d4 d9 6a bd 6f 23 5d 3c 83 bc 27 bd c9 6b 61 3d
       -0.057336643 0.013497218 -0.040951263 0.055034433
0000e0 9d 28 88 3b 7d 5e 98 ba 95 49 5f 3d 99 87 06 3b
       0.004155232 -0.0011624839 0.054513533 0.00205276
0000f0 bf 20 ec bc 71 e3 9c bc 1d db 57 bd ac 93 aa bc
       -0.028824208 -0.019151421 -0.052699197 -0.020822369
000100 e8 2d 5e bd c3 32 7c bc 0c dc 4c bc 43 86 d6 3b
       -0.054243 -0.015392962 -0.012503635 0.006546767
000110 4a 25 35 bd 32 43 1d 3c da ba e0 bc e0 a0 15 3d
       -0.044225015 0.00959854 -0.027432848 0.036530375
000120 17 eb 61 bd 3c e9 56 bd da 8f 4b bd 5c 89 a1 bb
       -0.05515584 -0.052468523 -0.049697734 -0.0049297046
000130 c3 16 53 3d f8 4c fd bc 97 f0 1e bd f1 44 5c 3d
       0.05153538 -0.03092049 -0.038803663 0.053776685
000140 95 3f 98 bc 6a 24 04 bd 01 ef 5e 3b e3 91 4e 3d
       -0.018585006 -0.03226129 0.003401697 0.050432097
000150 04 ee 05 bc 14 ab f5 bc d4 6f 3d 3d c8 00 17 3c
       -0.008174423 -0.029988803 0.046249226 0.009216495
000160 74 90 62 3d 40 b9 fe 3c 71 ef a8 bc 84 75 69 bc
       0.055313542 0.031094193 -0.020621987 -0.014249209
000170 92 00 2d bc 9b 6a 9e b9 17 58 32 bd ec 3b 44 3d
       -0.010559218 -0.00030215536 -0.04354104 0.04790871
000180 19 ee 65 bd d0 51 38 bd be 04 0e 3d 3c 25 1b 3a
       -0.05613527 -0.044999897 0.03467249 0.0005918329
000190 c0 4e cb bb 07 ee 46 bd c7 ce ef 3c 69 66 11 bd
       -0.006204456 -0.048566844 0.029273404 -0.035498057
0001a0 4c 87 0b bc a7 2e 89 bc 5d 9c d6 bc cc f4 ee 3c
       -0.008516144 -0.016745878 -0.026197607 0.029169463
0001b0 09 25 a4 3c 33 6d 14 3c c9 fa 16 3d 30 d1 07 3d
       0.020037191 0.009059238 0.03686026 0.03315848
0001c0 f0 bb a0 bc e9 cc a5 bb ce 52 50 3d 79 a4 4d bc
       -0.019620866 -0.0050598276 0.05086022 -0.01255142
0001d0 3e fe 11 bd 50 c9 56 bc b9 5c d1 3c 05 6f 1b 3d
       -0.035642855 -0.01310952 0.025556909 0.037947673
0001e0 f7 69 f8 3c bd 26 57 bc d2 71 c2 3c 3c 4d 80 bc
       0.030323965 -0.0131317945 0.023735914 -0.015661828
0001f0 86 fc 57 3c 0e e9 56 bd e6 91 2c 3d 44 11 ef bc
       0.013182765 -0.052468352 0.042131327 -0.029183038
000200 43 70 0a bd 3a 83 cb b9 ae f6 35 bc 13 35 4e bd
       -0.033798467 -0.0003881695 -0.011106176 -0.050343584
000210 29 8b 4c 3d 26 2d 81 3d 07 cb 2d 3d f7 c7 7d 3d
       0.0499374 0.063074395 0.04242995 0.06195828
000220 89 30 c5 3c f5 2d 8c 3b e1 15 56 3d 30 4d 26 3a
       0.024070995 0.0042779394 0.05226696 0.00063438993
000230 7d b8 44 bd 10 d8 e3 3c ae 44 2c bd 14 f1 34 3d
       -0.048027504 0.027812988 -0.042057686 0.044175223
000240 5c 43 52 3d e6 95 da bc c0 2d 37 bc 33 70 cf bc
       0.05133377 -0.026682805 -0.011180341 -0.025322055
000250 30 ff 07 bd 7a 49 55 bd 82 dc 1a bc 9e 6b b6 bb
       -0.03320235 -0.052072026 -0.009451987 -0.005567028
000260 19 45 62 3d ee 67 5d 3d e4 52 5e 3d 3d d8 c0 bc
       0.055241678 0.054054193 0.05427827 -0.02354061
000270 9d 8f 1c 3d 44 02 f7 ba 3f 34 ce bc 40 3d 48 39
       0.038222898 -0.001884528 -0.025171397 0.00019096304
000280 91 03 17 bd ba 99 a6 bc 77 37 6e 3d 29 39 bf 3b
       -0.036868636 -0.020336974 0.058158364 0.0058356714
000290 de 24 75 bd 3c ac 2b 3d 24 a9 5d bb 21 4d 6d 3c
       -0.059849612 0.041912302 -0.003382274 0.014483721
0002a0 77 82 3e 3d e2 cf 83 bc 05 9c 09 3d 78 69 4d 3d
       0.04651114 -0.016090337 0.033596057 0.05014941
0002b0 68 ef 48 3d 92 71 ff bb 1a 4f 1b bc 69 9f 0d 3c
       0.04905644 -0.007795521 -0.0094793085 0.008643963
0002c0 46 2b 64 bd 37 f9 5f 3d 66 f9 e5 bc 70 2b 69 bd
       -0.05570533 0.05468103 -0.028073024 -0.05692619
0002d0 4e 65 41 3d 18 c3 1b bc 8d 84 05 3c 78 1a 8a 3c
       0.047215752 -0.009506963 0.008149278 0.016858324
0002e0 ae 81 1e bd 2e 50 74 bd 9e fb 01 bb 9b 87 5b 3d
       -0.03869789 -0.059646778 -0.0019833813 0.05359612
0002f0 20 71 b7 bc 12 57 ba 3b b2 25 18 3d d6 44 29 bb
       -0.02239281 0.005686649 0.037145324 -0.0025828383
000300 b0 23 54 bd 55 18 43 bd 63 ee 50 3d e0 26 08 3d
       -0.051791847 -0.047630627 0.051008593 0.0332402
000310 30 b9 66 bd 07 eb 58 3d 4d 98 b4 3c bc 32 ad bc
       -0.056328952 0.052958515 0.022045279 -0.021142356
000320 30 e8 bd bb 5d 29 3b bd 7d c8 08 bd 27 ec ef 3c
       -0.005795501 -0.045693744 -0.033394326 0.02928741
000330 3b 11 5f 3d b6 cc 55 3d 24 aa 0e bc ac 0d c8 bc
       0.05445979 0.05219718 -0.008707557 -0.024420582
000340 00 58 ab 3a 76 a0 b4 bc 4b f5 2d bd 12 74 20 3d
       0.0013072491 -0.02204917 -0.042470258 0.039173193
000350 cd 9f 3d 3d 75 45 7b 3d 35 d6 6c 3d 26 06 20 3c
       0.046294976 0.061345536 0.05782147 0.009767091
000360 35 51 18 bd a8 67 62 bd 1d 57 5d 3d 1b e2 3e 3d
       -0.03718682 -0.055274636 0.054038156 0.04660235
000370 74 37 77 bb 77 a8 0e bc f0 88 1e bd 1e fb cf 39
       -0.0037722262 -0.008707157 -0.038704813 0.00039669214
000380 03 f3 03 3d fe 07 f8 bc 06 b5 15 3d 65 6c 0a bd
       0.032214176 -0.030277248 0.03654959 -0.03379478
000390 2d d3 3a 3d 81 c9 41 3d ff 86 4c 3d 46 54 07 bd
       0.04561155 0.04731131 0.04993343 -0.033039354
0003a0 e0 05 0e 3d ce 66 22 bd 2a 6f d4 bc a2 95 07 bd
       0.03467357 -0.039648823 -0.025931913 -0.033101685
0003b0 12 44 f6 3c ed f8 99 3a 4e 85 0d bd 00 6c 6c bc
       0.030061755 0.0011747159 -0.034550957 -0.014430046
0003c0 30 25 82 bc 0b fe 74 bd c1 a9 40 3d 97 89 2a bc
       -0.015886873 -0.059812587 0.04703689 -0.010408781
0003d0 9d 8f 5c 3c be 15 21 bd ec 91 87 bc 23 f7 33 bd
       0.013461974 -0.039327376 -0.016549073 -0.04393686
0003e0 9d eb 22 3d 41 7b 93 bc 62 24 3e bc 3e 8a 6e 3c
       0.03977548 -0.018003108 -0.011605354 0.014559327
0003f0 97 83 4a bd 09 1a 62 bd b4 f2 61 bd 08 af 1a 3d
       -0.0494419 -0.05520061 -0.0551631 0.03776458

module.1.module.2.bias f4 [256]
000000 24 2b c4 bc ae 15 2c bd 3e 42 39 bd 57 18 68 3d
       -0.023946352 -0.042012863 -0.04522919 0.056663837
000010 52 c5 ea 3c c4 9a 43 bd 91 80 62 3d 00 2a 54 3d
       0.028658543 -0.047755018 0.05529839 0.051797867
000020 bb da 18 3d 7d 45 76 bd c3 88 13 3d 45 93 12 bc
       0.037317973 -0.060124863 0.036019098 -0.008946245
000030 97 0f 38 3d 17 63 54 bc 9a 13 72 bd a3 d3 96 bc
       0.044936743 -0.012963078 -0.059100725 -0.018411463
000040 44 42 29 bc e0 4e 2a 3d 76 49 64 bd 1c 4e a0 bc
       -0.01033074 0.041579127 -0.05573412 -0.019568495
000050 59 c9 30 3d 88 33 68 3d 6f 68 ab bc 3a f7 e9 3c
       0.04316077 0.05668977 -0.020923821 0.02856027
000060 24 76 19 bd 1f e7 d1 bc ff e8 7e bd 9a c1 ad bc
       -0.037466183 -0.025622902 -0.06223392 -0.02121048
000070 70 ea 65 bd 12 e9 aa 3b e4 a5 75 bb 58 c2 cd bb
       -0.05613178 0.0052157724 -0.0037482912 -0.006279271
000080 f8 56 35 3d 8b 72 c6 3c b8 45 74 3d 83 77 e5 3c
       0.044272393 0.02422454 0.0596368 0.02801109
000090 fb b8 a0 bc 4f 13 0d bd ae 97 8a bc d1 ff ec bb
       -0.019619456 -0.034442242 -0.01691803 -0.007232644
0000a0 d7 dd bc 3b 7d 5a 43 bd e3 44 2e bd 1e d8 64 3c
       0.00576375 -0.04769372 -0.042546164 0.013967542
0000b0 1e 66 16 3d b1 78 61 bd 83 6c a5 bc b6 86 c0 3c
       0.03671848 -0.05504674 -0.020193344 0.023501735
0000c0 a6 9e dd bc e0 d0 45 bc 04 06 08 3d b4 3e 69 bd
       -0.027053189 -0.012073725 0.033208862 -0.056944564
0000d0 d1 4e 2d bd da ad 0a bc d4 32 05 bd 8c 9d 47 bc
       -0.042311493 -0.008464301 -0.032519177 -0.012183558
0000e0 51 c7 7a 3b 94 63 27 bd e0 3d 29 3d fe 6e ad bc
       0.0038265774 -0.04086645 0.041318774 -0.02117109
0000f0 c3 cf 04 3c 3c e2 04 3d 06 a9 02 3d 6d 2e 09 bd
       0.008106175 0.032442316 0.031899475 -0.03349154
000100 26 7e 6e 3d c4 f0 ce bc ff 63 19 3d 3f 9b 3f bd
       0.058225773 -0.02526129 0.03744888 -0.046778914
000110 d9 3c bf ba 25 e1 4c 3c f9 1f 9b 3b 2e 50 3a bd
       -0.0014590278 0.0125048505 0.004734036 -0.04548662
000120 7b 5c 73 bd 28 c5 93 bc 90 68 1d bc 5e e6 2f bd
       -0.059414368 -0.018038347 -0.009607449 -0.042944305
000130 7e 89 7c 3d 08 b2 41 3d 91 0a 01 3d bd 88 b6 bc
       0.06165456 0.047288924 0.031504218 -0.022281999
000140 53 8b 69 bd 98 b2 65 bd 8a c1 8a 3b fe 27 32 bd
       -0.057017636 -0.056078523 0.0042344974 -0.04349517
000150 e4 9a 80 3d a7 f8 27 3d bf 8e 6b 3d ed 81 73 bd
       0.06279543 0.041008618 0.05750918 -0.05945008
000160 60 94 19 3d bc 8a 1e 3c 31 9d fd bc 53 db 07 bd
       0.037495017 0.009676632 -0.030958744 -0.03316815
000170 77 7a eb 3c 5e 42 07 3d 7b 82 7a bd 66 6e 1e 3d
       0.02874492 0.033022277 -0.061159592 0.038679503
000180 0e ac 02 3a 43 66 dd 3c d1 b9 90 3c 4f 89 7b 3d
       0.00049847446 0.027026301 0.01766673 0.061410245
000190 47 bf 07 bc 13 30 12 bd 1d b7 73 bd fc ed 12 bd
       -0.00828535 -0.03569038 -0.059500802 -0.03587149
0001a0 bd e1 18 3b 86 36 78 bd f1 24 4b 3c 44 06 23 bd
       0.002332791 -0.060598873 0.012398944 -0.039800897
0001b0 5c 8e 25 3d df a0 ce 3b 5d 0c 4a 3d 36 76 e4 3c
       0.040418968 0.0063057984 0.049328197 0.027888399
0001c0 76 b7 70 3d 4e 0f 77 3c af 13 35 bd 7e ac e4 3c
       0.058768712 0.0150793325 -0.044208225 0.027914282
0001d0 18 47 46 3d 2e 23 af 3c f2 26 60 3d f4 cc d5 bb
       0.048407644 0.02137908 0.05472464 -0.0065246765
0001e0 83 7a bd 3c 3b 64 7b 3c 59 de 9a 3c eb 21 0f 3d
       0.023129707 0.015343721 0.018904852 0.034944456
0001f0 26 24 7e 3d da c6 55 3d 62 aa 84 bc 4d b3 ce 3b
       0.062046193 0.052191593 -0.016194526 0.0063079954
000200 c7 b1 3e 3d 7e d3 f9 3c 0e b0 5c bd dc 25 2b 3d
       0.04655626 0.030496355 -0.053878836 0.041784152
000210 c3 b3 fb ba b8 1c e5 bb 12 1f d4 bb 7e b5 5e bd
       -0.0019203353 -0.006991949 -0.0064734304 -0.054372303
000220 8d c3 76 3d 8b 32 02 3d 8e 6e 5d 3d 09 64 09 3d
       0.060245086 0.031786483 0.05406051 0.033542667
000230 ec 42 2b 3d 11 23 42 3d fa 84 be 3c a0 16 ba 3c
       0.04181187 0.047396723 0.023256768 0.022715867
000240 eb 47 ec bc 9f 7c b6 3c bb d3 51 3d 80 2f ec bc
       -0.028842887 0.02227622 0.051227313 -0.028831244
000250 9e a5 73 3c db 08 63 3d 2c bc 7b 3d fa 4b 08 3d
       0.014871029 0.055428367 0.06145875 0.033275582
000260 3d 39 51 bd 52 f8 f3 3b 3a 9f b6 b9 ee 72 59 bd
       -0.051079977 0.0074453736 -0.00034832378 -0.05308812
000270 b5 0b 26 bc d1 28 7a bd 48 2c 50 3d 1a 3c 61 3c
       -0.010134627 -0.06107408 0.05082348 0.0137472395
000280 81 97 f2 bb 74 7b 79 bd 3d 27 76 3d 34 a1 fd 3b
       -0.0074033146 -0.06090875 0.060096014 0.007740164
000290 d8 97 3f 3d 80 f9 d4 bc 2f 56 6a 3b e9 5a 46 3d
       0.04677567 -0.025997877 0.0035756936 0.048426542
0002a0 a6 da 50 bd 4f 64 4a 3d ce 1d ce bc 5a f5 fd 3c
       -0.05098977 0.049412068 -0.025160696 0.031000782
0002b0 c7 5e 9d bc 8a d6 81 bd b9 1e 89 3c 31 c8 52 bd
       -0.019210232 -0.06339748 0.016738283 -0.05146045
0002c0 e1 e0 09 bc bf 22 9c bc b5 e6 04 bd ab 6b 73 3d
       -0.008415432 -0.019059537 -0.032446582 0.059428852
0002d0 f3 aa f5 3c 4f 86 a7 3c e1 b8 94 3c 8c 94 42 3c
       0.029988742 0.020449786 0.018154563 0.011876237
0002e0 f5 49 8f 3a 5c 3f c5 bc c2 99 e3 bc e4 be 9a bc
       0.0010932075 -0.024078064 -0.027783278 -0.018889852
0002f0 75 2e 0b 3d b2 60 12 bd 41 53 3e 3d 9c 38 4c bd
       0.03397985 -0.035736747 0.046466116 -0.049858674
000300 0e 1d 02 3d f8 8b 0b 3d f5 9d 63 3d 69 dd f0 bc
       0.03176599 0.03406903 0.05557056 -0.029402452
000310 2f d5 20 bc 61 99 97 bc e7 5e 9f bc 4d 5b 6f 3d
       -0.009816452 -0.018505754 -0.019454433 0.05843668
000320 64 1a 2b bd 18 13 da bc f6 3d 2a bd b2 c7 14 bc
       -0.041773215 -0.026620433 -0.041562997 -0.009080814
000330 89 c0 84 bc ed 0b 53 bd f5 76 b7 3b e4 65 2c bd
       -0.01620509 -0.051525045 0.0055988976 -0.042089358
000340 c5 db 6d bd f8 c4 92 3c 70 47 cd 3b 5e 5f 33 bb
       -0.058070917 0.017916188 0.0062646195 -0.0027370076
000350 b1 fd d4 bc 89 8d 8d bc 53 f5 40 3c 26 b5 d1 bc
       -0.025999876 -0.017279403 0.01177724 -0.025599074
000360 e6 e2 2a 3c cf 68 4b 3d 6f 52 fc bc f5 b5 96 3c
       0.010430073 0.0496605 -0.030801026 0.01839731
000370 5a 85 59 3d 04 1d 2b bd 47 e8 25 3d 88 7f 3e bd
       0.05310569 -0.04177572 0.04050472 -0.046508342
000380 5a ad 21 bd 77 48 9a bc e4 eb 32 bd 92 99 52 bd
       -0.03947196 -0.018833382 -0.043681994 -0.051415987
000390 80 c2 b6 bc 21 a5 0b bd f1 74 14 3d 68 2c ff bc
       -0.022309542 -0.034093026 0.036244337 -0.031149104
0003a0 3f a5 66 bd d7 78 50 bd 7d 3a 10 3c e9 e1 6e bd
       -0.056309935 -0.05089649 0.008803007 -0.058320913
0003b0 ff 2f 55 3c 18 a1 46 bd 1c 10 aa bc ab 2e 4f 3d
       0.013011931 -0.048493475 -0.020759635 0.050581615
0003c0 f0 23 44 3d 21 51 5c 3b 70 9c 2e 3d 15 d1 bf bc
       0.047885835 0.0033617693 0.04262966 -0.023415128
0003d0 52 a6 5e 3d d0 bf 4d 3c 9a 5d 08 3d 66 0a c4 bc
       0.054357834 0.012557939 0.03329239 -0.02393074
0003e0 82 83 2b bb 95 c8 3c 3d 89 1d 7a bd 96 be 7a 3d
       -0.0026170914 0.046089727 -0.061063323 0.061216913
0003f0 6d 53 57 bd 97 fb 4b 3d e5 5c 22 3d d7 23 39 3d
       -0.052569795 0.04980048 0.039639372 0.045200195

module.1.module.4.weight f4 [1, 256]
000000 7b 0c ad 3c 5b 91 3f bc 42 4a 42 bd db c3 10 bd
       0.021124115 -0.01169237 -0.0474341 -0.035343032
000010 f8 6e 00 bd b5 d9 6e 3d 3c 92 ff bc 47 02 70 3c
       -0.031355828 0.05831309 -0.03119766 0.01464898
000020 61 4e 04 3d 6e 35 4e 3c d2 4b 14 3d 79 df 12 bd
       0.03230131 0.012585981 0.03620512 -0.03585765
000030 9d b3 48 bc b2 6f 5c 3d 6e e4 04 bd 49 aa 10 3c
       -0.012249854 0.05381746 -0.03244441 0.008829662
000040 1e 72 64 bd 32 66 71 3d 41 d3 2f 3d be 27 bb bc
       -0.055772893 0.05893535 0.042926077 -0.022846099
000050 77 30 7b bd c8 ce 02 3d d2 f0 1e 3d 04 df 3e 3d
       -0.061325517 0.031935483 0.038803883 0.046599403
000060 e8 1a 3b bd 99 66 40 3d 63 85 3b 3d e6 70 73 3c
       -0.045679957 0.046972845 0.045781504 0.01485846
000070 50 9d 4c bd ea db 38 bc b3 9d 34 3a a9 8c 81 3d
       -0.049954712 -0.0112829 0.0006889954 0.06325657
000080 3a 0f b6 bc 7e 46 72 bd d6 94 0d 3d a0 3a ff bc
       -0.022224057 -0.059149258 0.03456577 -0.031155884
000090 15 23 c3 3c 6c 09 d6 3b 92 8f 68 bb bd 05 4f bd
       0.02382044 0.006531885 -0.0035485965 -0.05054258
0000a0 3d d8 3e 3d 65 01 13 bd e0 51 14 bc a8 e8 ce bc
       0.04659294 -0.03589 -0.009052724 -0.025257424
0000b0 4f eb e9 bb be 83 af bc 0f 9b 27 3d 9e 33 92 3c
       -0.0071386467 -0.021425124 0.04091936 0.017846879
0000c0 24 1c 4f bd 30 1e 64 3d 95 11 14 bc 8f 9e 3a bd
       -0.050563946 0.05569285 -0.009037395 -0.04556137
0000d0 a9 de 81 3d f9 32 29 3d b6 4c 2f 3d ec 04 66 3d
       0.06341297 0.041308377 0.042797767 0.056157038
0000e0 d6 83 4c bd 1d 54 6f bd 58 18 20 3d 69 0d d3 bc
       -0.049930416 -0.058429826 0.039085716 -0.02576323
0000f0 24 8b 11 bd c7 88 35 3d f7 25 6e 3c ec 37 85 bc
       -0.035533085 0.044319894 0.014535419 -0.016262017
000100 11 0d 07 bc 40 e2 ea 3c 34 e1 26 3d 6d 6a 41 3d
       -0.008242861 0.028672338 0.040742114 0.047220636
000110 b5 16 59 bc 94 e6 6f 3c 8d 34 6e bd 6d f1 f6 bc
       -0.013250043 0.014642376 -0.058155585 -0.030144418
000120 47 38 28 bc e9 bc de 3c e6 83 ec bc 72 ea ef 3b
       -0.010267324 0.027189689 -0.028871488 0.007321649
000130 11 66 ec bc 70 ad fb 3a 29 28 21 3c 5c b1 79 bd
       -0.028857263 0.0019201469 0.009836235 -0.06096016
000140 88 2a 77 bd dc 19 93 3a 15 5d e2 bc 1a ac 5a 3d
       -0.060343295 0.0011222917 -0.027632276 0.053386785
000150 90 04 91 bb 8a cd 01 3d c0 ad 13 3d dd c5 28 3d
       -0.0044255927 0.031690158 0.036054373 0.041204322
000160 17 cf 3c 3d ff d9 9d bc 5f ae 4e bc 0f 77 19 bc
       0.046095934 -0.019268988 -0.0126148155 -0.009366765
000170 87 5b 0c bd 5e 8a a8 bb 1d a8 df 3c f0 f9 ae bc
       -0.034266975 -0.005143448 0.027301842 -0.021359414
000180 8d ad 49 bd d1 ac d7 bc 97 79 b5 bc d8 33 f5 bc
       -0.049237777 -0.026327522 -0.022152705 -0.029931948
000190 eb 06 1c bc 74 56 18 3d 55 aa e3 3c 7f 9b 60 bd
       -0.009523134 0.037191823 0.027791182 -0.054835793
0001a0 45 f4 ce 3b 9b 0d 2a bd 8c d8 55 3c 76 8a 8f bc
       0.0063157403 -0.04151688 0.013052117 -0.017522078
0001b0 38 eb 1c 3d 99 69 0f 3d de de 55 bc 1b 82 de bc
       0.03831026 0.035012815 -0.013053624 -0.027161648
0001c0 d1 5e 5d bd 4f 4b cb bc 0f e9 62 3c a3 08 d9 3c
       -0.054045502 -0.024816183 0.013849511 0.026493376
0001d0 ca 98 da bb e3 8a 04 bc cc af a1 ba a5 bf f3 bc
       -0.006671046 -0.008089754 -0.0012335717 -0.02975447
0001e0 39 08 ce bc d8 27 57 3b 75 de 98 3c 12 bb 67 3d
       -0.025150405 0.0032830145 0.018660763 0.05657489
0001f0 93 4e 25 bc aa 42 17 bd ed fd 94 3b bd da 2a 3d
       -0.010089534 -0.03692881 0.004546872 0.04171251
000200 0e 54 5f 3d 63 e8 f2 bb f9 44 64 bc f4 b1 15 3d
       0.05452352 -0.0074129566 -0.01393246 0.036546662
000210 08 4d 70 3d 12 2b 70 3d c2 1c b0 3c 43 ec 5b 3d
       0.058667213 0.058634825 0.021498088 0.053692114
000220 69 b1 6e bc 2e cf db bc 2b 05 47 bd 36 df 51 bd
       -0.014568665 -0.02683219 -0.048588913 -0.05123826
000230 46 52 3e 3c 5c e8 83 bc 79 d5 50 bc 2c 3c d5 bc
       0.011616295 -0.016102009 -0.012746208 -0.026029669
000240 f6 5b 6f 3d 22 1b af ba 50 de d5 3c 28 44 3f 3c
       0.05843731 -0.0013359527 0.026106983 0.011673965
000250 03 8d 3a 3d e2 9c 1c bd ad 65 b6 3c af 6d 6a bc
       0.045544636 -0.038235553 0.02226528 -0.014308377
000260 b3 94 42 bd 2b 4c 22 bd 3e 65 d0 bb d5 70 4e 3d
       -0.047505092 -0.03962342 -0.0063597253 0.050400574
000270 7e 96 5a 3c cd 1f 10 3d 4e 6b da bc 81 56 68 3d
       0.013341544 0.035186578 -0.026662495 0.05672312
000280 9d d9 27 3d 78 73 6d bd 79 ee 06 bd 80 f4 5b bc
       0.040979017 -0.057971448 -0.03294227 -0.013424993
000290 fd 4d 8e bc 06 f8 cf 3c 62 60 b0 3c a8 b9 d4 bc
       -0.017371172 0.025386821 0.021530334 -0.025967434
0002a0 a1 23 8c bc 2b d6 08 bd 54 f1 9e 38 53 c5 18 bb
       -0.017106833 -0.03340737 7.578978e-05 -0.0023310974
0002b0 19 bb 66 bd e6 96 26 3d 67 9d 0b 3d 11 82 29 bd
       -0.056330774 0.04067125 0.034085657 -0.041383807
0002c0 3f 6e 79 3d 40 db 21 3d 52 bf 50 3d 4e 4b 52 3d
       0.060896154 0.039515734 0.050963707 0.051341347
0002d0 d9 a9 d7 3c c6 b5 c9 3c ea 78 7f bc 95 3d 98 3b
       0.026326107 0.02462281 -0.015592793 0.004646013
0002e0 46 f2 c5 bc ff 68 c2 3c ba f5 ac bc 35 63 09 3d
       -0.024163377 0.023731707 -0.021113265 0.033541877
0002f0 02 23 5b 3d d3 7f ef 3c 45 a6 32 3d e0 c9 29 bd
       0.053500183 0.029235756 0.0436156 -0.04145229
000300 9b 19 b7 bc 8b a4 0d 3d 37 e6 17 3d 1b b8 69 bd
       -0.022351077 0.03458075 0.037084784 -0.057060342
000310 2a e6 48 bd 16 04 00 3d 6a 8f ec 3c 08 f3 c5 bb
       -0.049047627 0.031253897 0.028876979 -0.0060409345
000320 aa f6 53 3d 64 a6 3f bd f4 d7 0b bc 69 f1 cc bc
       0.05174891 -0.04678954 -0.008535374 -0.025017457
000330 a4 5b 89 bc 04 fd 22 bc 5a 5a b7 3c e9 82 02 3d
       -0.01676733 -0.009948019 0.02238195 0.031863127
000340 64 c3 62 bd 55 d9 06 3d fc a2 22 3d 9f f4 60 3d
       -0.05536212 0.032922108 0.039706215 0.05492079
000350 a5 5b 58 bd 74 05 1b 3d 1e 2b 61 3d 8b 14 67 bd
       -0.052821774 0.037846997 0.05497276 -0.056416076
000360 a3 27 35 bc 79 fb 14 bd e2 f1 13 3d f1 37 e9 bc
       -0.011056813 -0.036372636 0.03611935 -0.028469058
000370 fa b1 04 3d e3 0d d2 3b 1c 30 70 bd af 88 d1 bc
       0.032396294 0.006410347 -0.05863963 -0.025577871
000380 84 ad 83 bc 43 7a e7 3c df 45 37 bd 2c d1 36 3d
       -0.01607395 0.028256541 -0.04474437 0.044633076
000390 12 0b 34 3d 5f 2a 4c 3d d3 22 f0 3a 7c eb 78 3d
       0.04395587 0.049845096 0.0018320925 0.06077145
0003a0 7d 23 6c 3c b9 9b 3c bd 9e 2b b6 bc 49 14 0d 3c
       0.014412758 -0.046046946 -0.022237595 0.008610793
0003b0 1c 17 6b 3d 88 51 92 3c fc 74 82 3c bc a2 1b bd
       0.057395086 0.017861143 0.015924923 -0.037996992
0003c0 a6 3a 31 bd e0 42 01 3d 24 1e 85 bc ee af ba bb
       -0.043268822 0.031557918 -0.016249724 -0.005697242
0003d0 f5 d5 1b 3d 2e 05 fb 3c e5 e6 7a 3c e3 a0 e2 ba
       0.038045842 0.030642118 0.015313839 -0.001729038
0003e0 ef a3 7b bd 0a 8c 52 bd a2 7e 6f bd 31 dc b2 bc
       -0.061435636 -0.051403083 -0.058470376 -0.021833511
0003f0 8b 9f 31 bd 8d 76 99 3a 08 93 fd 3c 77 3f 7a 3d
       -0.043365043 0.0011708305 0.030953899 0.06109568
